…
2024-07-17 03:32:11,621 INFO: Dataset [PairedImageDataset] - train_dataset is built.
2024-07-17 03:32:11,621 INFO: Training statistics:
	Number of train images: 343
	Dataset enlarge ratio: 10
	Batch size per gpu: 8
	World size (gpu number): 1
	Require iter number per epoch: 429
	Total epochs: 700; iters: 300000.
2024-07-17 03:32:11,624 INFO: Dataset [PairedImageDataset] - val_dataset is built.
2024-07-17 03:32:11,624 INFO: Number of val images/folders in val_dataset: 73
2024-07-17 03:32:12,045 INFO: Network [RCAN] is created.
2024-07-17 03:32:13,877 INFO: Network: RCAN, with parameters: 15,592,355
2024-07-17 03:32:13,877 INFO: RCAN(
  (conv_first): Conv2d(3, 64, kernel_size=(3, 3), stride=(1, 1), padding=(1, 1))
  (body): Sequential(
    (0): ResidualGroup(
      (residual_group): Sequential(
        (0): RCAB(
          (rcab): Sequential(
            (0): Conv2d(64, 64, kernel_size=(3, 3), stride=(1, 1), padding=(1, 1))
            (1): ReLU(inplace=True)
            (2): Conv2d(64, 64, kernel_size=(3, 3), stride=(1, 1), padding=(1, 1))
            (3): ChannelAttention(
              (attention): Sequential(
                (0): AdaptiveAvgPool2d(output_size=1)
                (1): Conv2d(64, 4, kernel_size=(1, 1), stride=(1, 1))
                (2): ReLU(inplace=True)
                (3): Conv2d(4, 64, kernel_size=(1, 1), stride=(1, 1))
                (4): Sigmoid()
              )
            )
          )
        )
        (1): RCAB(
          (rcab): Sequential(
            (0): Conv2d(64, 64, kernel_size=(3, 3), stride=(1, 1), padding=(1, 1))
            (1): ReLU(inplace=True)
            (2): Conv2d(64, 64, kernel_size=(3, 3), stride=(1, 1), padding=(1, 1))
            (3): ChannelAttention(
              (attention): Sequential(
                (0): AdaptiveAvgPool2d(output_size=1)
                (1): Conv2d(64, 4, kernel_size=(1, 1), stride=(1, 1))
                (2): ReLU(inplace=True)
                (3): Conv2d(4, 64, kernel_size=(1, 1), stride=(1, 1))
                (4): Sigmoid()
              )
            )
          )
        )
        (2): RCAB(
          (rcab): Sequential(
            (0): Conv2d(64, 64, kernel_size=(3, 3), stride=(1, 1), padding=(1, 1))
            (1): ReLU(inplace=True)
            (2): Conv2d(64, 64, kernel_size=(3, 3), stride=(1, 1), padding=(1, 1))
            (3): ChannelAttention(
              (attention): Sequential(
                (0): AdaptiveAvgPool2d(output_size=1)
                (1): Conv2d(64, 4, kernel_size=(1, 1), stride=(1, 1))
                (2): ReLU(inplace=True)
                (3): Conv2d(4, 64, kernel_size=(1, 1), stride=(1, 1))
                (4): Sigmoid()
              )
            )
          )
        )
        (3): RCAB(
          (rcab): Sequential(
            (0): Conv2d(64, 64, kernel_size=(3, 3), stride=(1, 1), padding=(1, 1))
            (1): ReLU(inplace=True)
            (2): Conv2d(64, 64, kernel_size=(3, 3), stride=(1, 1), padding=(1, 1))
            (3): ChannelAttention(
              (attention): Sequential(
                (0): AdaptiveAvgPool2d(output_size=1)
                (1): Conv2d(64, 4, kernel_size=(1, 1), stride=(1, 1))
                (2): ReLU(inplace=True)
                (3): Conv2d(4, 64, kernel_size=(1, 1), stride=(1, 1))
                (4): Sigmoid()
              )
            )
          )
        )
        (4): RCAB(
          (rcab): Sequential(
            (0): Conv2d(64, 64, kernel_size=(3, 3), stride=(1, 1), padding=(1, 1))
            (1): ReLU(inplace=True)
            (2): Conv2d(64, 64, kernel_size=(3, 3), stride=(1, 1), padding=(1, 1))
            (3): ChannelAttention(
              (attention): Sequential(
                (0): AdaptiveAvgPool2d(output_size=1)
                (1): Conv2d(64, 4, kernel_size=(1, 1), stride=(1, 1))
                (2): ReLU(inplace=True)
                (3): Conv2d(4, 64, kernel_size=(1, 1), stride=(1, 1))
                (4): Sigmoid()
              )
            )
          )
        )
        (5): RCAB(
          (rcab): Sequential(
            (0): Conv2d(64, 64, kernel_size=(3, 3), stride=(1, 1), padding=(1, 1))
            (1): ReLU(inplace=True)
            (2): Conv2d(64, 64, kernel_size=(3, 3), stride=(1, 1), padding=(1, 1))
            (3): ChannelAttention(
              (attention): Sequential(
                (0): AdaptiveAvgPool2d(output_size=1)
                (1): Conv2d(64, 4, kernel_size=(1, 1), stride=(1, 1))
                (2): ReLU(inplace=True)
                (3): Conv2d(4, 64, kernel_size=(1, 1), stride=(1, 1))
                (4): Sigmoid()
              )
            )
          )
        )
        (6): RCAB(
          (rcab): Sequential(
            (0): Conv2d(64, 64, kernel_size=(3, 3), stride=(1, 1), padding=(1, 1))
            (1): ReLU(inplace=True)
            (2): Conv2d(64, 64, kernel_size=(3, 3), stride=(1, 1), padding=(1, 1))
            (3): ChannelAttention(
              (attention): Sequential(
                (0): AdaptiveAvgPool2d(output_size=1)
                (1): Conv2d(64, 4, kernel_size=(1, 1), stride=(1, 1))
                (2): ReLU(inplace=True)
                (3): Conv2d(4, 64, kernel_size=(1, 1), stride=(1, 1))
                (4): Sigmoid()
              )
            )
          )
        )
        (7): RCAB(
          (rcab): Sequential(
            (0): Conv2d(64, 64, kernel_size=(3, 3), stride=(1, 1), padding=(1, 1))
            (1): ReLU(inplace=True)
            (2): Conv2d(64, 64, kernel_size=(3, 3), stride=(1, 1), padding=(1, 1))
            (3): ChannelAttention(
              (attention): Sequential(
                (0): AdaptiveAvgPool2d(output_size=1)
                (1): Conv2d(64, 4, kernel_size=(1, 1), stride=(1, 1))
                (2): ReLU(inplace=True)
                (3): Conv2d(4, 64, kernel_size=(1, 1), stride=(1, 1))
                (4): Sigmoid()
              )
            )
          )
        )
        (8): RCAB(
          (rcab): Sequential(
            (0): Conv2d(64, 64, kernel_size=(3, 3), stride=(1, 1), padding=(1, 1))
            (1): ReLU(inplace=True)
            (2): Conv2d(64, 64, kernel_size=(3, 3), stride=(1, 1), padding=(1, 1))
            (3): ChannelAttention(
              (attention): Sequential(
                (0): AdaptiveAvgPool2d(output_size=1)
                (1): Conv2d(64, 4, kernel_size=(1, 1), stride=(1, 1))
                (2): ReLU(inplace=True)
                (3): Conv2d(4, 64, kernel_size=(1, 1), stride=(1, 1))
                (4): Sigmoid()
              )
            )
          )
        )
        (9): RCAB(
          (rcab): Sequential(
            (0): Conv2d(64, 64, kernel_size=(3, 3), stride=(1, 1), padding=(1, 1))
            (1): ReLU(inplace=True)
            (2): Conv2d(64, 64, kernel_size=(3, 3), stride=(1, 1), padding=(1, 1))
            (3): ChannelAttention(
              (attention): Sequential(
                (0): AdaptiveAvgPool2d(output_size=1)
                (1): Conv2d(64, 4, kernel_size=(1, 1), stride=(1, 1))
                (2): ReLU(inplace=True)
                (3): Conv2d(4, 64, kernel_size=(1, 1), stride=(1, 1))
                (4): Sigmoid()
              )
            )
          )
        )
        (10): RCAB(
          (rcab): Sequential(
            (0): Conv2d(64, 64, kernel_size=(3, 3), stride=(1, 1), padding=(1, 1))
            (1): ReLU(inplace=True)
            (2): Conv2d(64, 64, kernel_size=(3, 3), stride=(1, 1), padding=(1, 1))
            (3): ChannelAttention(
              (attention): Sequential(
                (0): AdaptiveAvgPool2d(output_size=1)
                (1): Conv2d(64, 4, kernel_size=(1, 1), stride=(1, 1))
                (2): ReLU(inplace=True)
                (3): Conv2d(4, 64, kernel_size=(1, 1), stride=(1, 1))
                (4): Sigmoid()
              )
            )
          )
        )
        (11): RCAB(
          (rcab): Sequential(
            (0): Conv2d(64, 64, kernel_size=(3, 3), stride=(1, 1), padding=(1, 1))
            (1): ReLU(inplace=True)
            (2): Conv2d(64, 64, kernel_size=(3, 3), stride=(1, 1), padding=(1, 1))
            (3): ChannelAttention(
              (attention): Sequential(
                (0): AdaptiveAvgPool2d(output_size=1)
                (1): Conv2d(64, 4, kernel_size=(1, 1), stride=(1, 1))
                (2): ReLU(inplace=True)
                (3): Conv2d(4, 64, kernel_size=(1, 1), stride=(1, 1))
                (4): Sigmoid()
              )
            )
          )
        )
        (12): RCAB(
          (rcab): Sequential(
            (0): Conv2d(64, 64, kernel_size=(3, 3), stride=(1, 1), padding=(1, 1))
            (1): ReLU(inplace=True)
            (2): Conv2d(64, 64, kernel_size=(3, 3), stride=(1, 1), padding=(1, 1))
            (3): ChannelAttention(
              (attention): Sequential(
                (0): AdaptiveAvgPool2d(output_size=1)
                (1): Conv2d(64, 4, kernel_size=(1, 1), stride=(1, 1))
                (2): ReLU(inplace=True)
                (3): Conv2d(4, 64, kernel_size=(1, 1), stride=(1, 1))
                (4): Sigmoid()
              )
            )
          )
        )
        (13): RCAB(
          (rcab): Sequential(
            (0): Conv2d(64, 64, kernel_size=(3, 3), stride=(1, 1), padding=(1, 1))
            (1): ReLU(inplace=True)
            (2): Conv2d(64, 64, kernel_size=(3, 3), stride=(1, 1), padding=(1, 1))
            (3): ChannelAttention(
              (attention): Sequential(
                (0): AdaptiveAvgPool2d(output_size=1)
                (1): Conv2d(64, 4, kernel_size=(1, 1), stride=(1, 1))
                (2): ReLU(inplace=True)
                (3): Conv2d(4, 64, kernel_size=(1, 1), stride=(1, 1))
                (4): Sigmoid()
              )
            )
          )
        )
        (14): RCAB(
          (rcab): Sequential(
            (0): Conv2d(64, 64, kernel_size=(3, 3), stride=(1, 1), padding=(1, 1))
            (1): ReLU(inplace=True)
            (2): Conv2d(64, 64, kernel_size=(3, 3), stride=(1, 1), padding=(1, 1))
            (3): ChannelAttention(
              (attention): Sequential(
                (0): AdaptiveAvgPool2d(output_size=1)
                (1): Conv2d(64, 4, kernel_size=(1, 1), stride=(1, 1))
                (2): ReLU(inplace=True)
                (3): Conv2d(4, 64, kernel_size=(1, 1), stride=(1, 1))
                (4): Sigmoid()
              )
            )
          )
        )
        (15): RCAB(
          (rcab): Sequential(
            (0): Conv2d(64, 64, kernel_size=(3, 3), stride=(1, 1), padding=(1, 1))
            (1): ReLU(inplace=True)
            (2): Conv2d(64, 64, kernel_size=(3, 3), stride=(1, 1), padding=(1, 1))
            (3): ChannelAttention(
              (attention): Sequential(
                (0): AdaptiveAvgPool2d(output_size=1)
                (1): Conv2d(64, 4, kernel_size=(1, 1), stride=(1, 1))
                (2): ReLU(inplace=True)
                (3): Conv2d(4, 64, kernel_size=(1, 1), stride=(1, 1))
                (4): Sigmoid()
              )
            )
          )
        )
        (16): RCAB(
          (rcab): Sequential(
            (0): Conv2d(64, 64, kernel_size=(3, 3), stride=(1, 1), padding=(1, 1))
            (1): ReLU(inplace=True)
            (2): Conv2d(64, 64, kernel_size=(3, 3), stride=(1, 1), padding=(1, 1))
            (3): ChannelAttention(
              (attention): Sequential(
                (0): AdaptiveAvgPool2d(output_size=1)
                (1): Conv2d(64, 4, kernel_size=(1, 1), stride=(1, 1))
                (2): ReLU(inplace=True)
                (3): Conv2d(4, 64, kernel_size=(1, 1), stride=(1, 1))
                (4): Sigmoid()
              )
            )
          )
        )
        (17): RCAB(
          (rcab): Sequential(
            (0): Conv2d(64, 64, kernel_size=(3, 3), stride=(1, 1), padding=(1, 1))
            (1): ReLU(inplace=True)
            (2): Conv2d(64, 64, kernel_size=(3, 3), stride=(1, 1), padding=(1, 1))
            (3): ChannelAttention(
              (attention): Sequential(
                (0): AdaptiveAvgPool2d(output_size=1)
                (1): Conv2d(64, 4, kernel_size=(1, 1), stride=(1, 1))
                (2): ReLU(inplace=True)
                (3): Conv2d(4, 64, kernel_size=(1, 1), stride=(1, 1))
                (4): Sigmoid()
              )
            )
          )
        )
        (18): RCAB(
          (rcab): Sequential(
            (0): Conv2d(64, 64, kernel_size=(3, 3), stride=(1, 1), padding=(1, 1))
            (1): ReLU(inplace=True)
            (2): Conv2d(64, 64, kernel_size=(3, 3), stride=(1, 1), padding=(1, 1))
            (3): ChannelAttention(
              (attention): Sequential(
                (0): AdaptiveAvgPool2d(output_size=1)
                (1): Conv2d(64, 4, kernel_size=(1, 1), stride=(1, 1))
                (2): ReLU(inplace=True)
                (3): Conv2d(4, 64, kernel_size=(1, 1), stride=(1, 1))
                (4): Sigmoid()
              )
            )
          )
        )
        (19): RCAB(
          (rcab): Sequential(
            (0): Conv2d(64, 64, kernel_size=(3, 3), stride=(1, 1), padding=(1, 1))
            (1): ReLU(inplace=True)
            (2): Conv2d(64, 64, kernel_size=(3, 3), stride=(1, 1), padding=(1, 1))
            (3): ChannelAttention(
              (attention): Sequential(
                (0): AdaptiveAvgPool2d(output_size=1)
                (1): Conv2d(64, 4, kernel_size=(1, 1), stride=(1, 1))
                (2): ReLU(inplace=True)
                (3): Conv2d(4, 64, kernel_size=(1, 1), stride=(1, 1))
                (4): Sigmoid()
              )
            )
          )
        )
      )
      (conv): Conv2d(64, 64, kernel_size=(3, 3), stride=(1, 1), padding=(1, 1))
    )
    (1): ResidualGroup(
      (residual_group): Sequential(
        (0): RCAB(
          (rcab): Sequential(
            (0): Conv2d(64, 64, kernel_size=(3, 3), stride=(1, 1), padding=(1, 1))
            (1): ReLU(inplace=True)
            (2): Conv2d(64, 64, kernel_size=(3, 3), stride=(1, 1), padding=(1, 1))
            (3): ChannelAttention(
              (attention): Sequential(
                (0): AdaptiveAvgPool2d(output_size=1)
                (1): Conv2d(64, 4, kernel_size=(1, 1), stride=(1, 1))
                (2): ReLU(inplace=True)
                (3): Conv2d(4, 64, kernel_size=(1, 1), stride=(1, 1))
                (4): Sigmoid()
              )
            )
          )
        )
        (1): RCAB(
          (rcab): Sequential(
            (0): Conv2d(64, 64, kernel_size=(3, 3), stride=(1, 1), padding=(1, 1))
            (1): ReLU(inplace=True)
            (2): Conv2d(64, 64, kernel_size=(3, 3), stride=(1, 1), padding=(1, 1))
            (3): ChannelAttention(
              (attention): Sequential(
                (0): AdaptiveAvgPool2d(output_size=1)
                (1): Conv2d(64, 4, kernel_size=(1, 1), stride=(1, 1))
                (2): ReLU(inplace=True)
                (3): Conv2d(4, 64, kernel_size=(1, 1), stride=(1, 1))
                (4): Sigmoid()
              )
            )
          )
        )
        (2): RCAB(
          (rcab): Sequential(
            (0): Conv2d(64, 64, kernel_size=(3, 3), stride=(1, 1), padding=(1, 1))
            (1): ReLU(inplace=True)
            (2): Conv2d(64, 64, kernel_size=(3, 3), stride=(1, 1), padding=(1, 1))
            (3): ChannelAttention(
              (attention): Sequential(
                (0): AdaptiveAvgPool2d(output_size=1)
                (1): Conv2d(64, 4, kernel_size=(1, 1), stride=(1, 1))
                (2): ReLU(inplace=True)
                (3): Conv2d(4, 64, kernel_size=(1, 1), stride=(1, 1))
                (4): Sigmoid()
              )
            )
          )
        )
        (3): RCAB(
          (rcab): Sequential(
            (0): Conv2d(64, 64, kernel_size=(3, 3), stride=(1, 1), padding=(1, 1))
            (1): ReLU(inplace=True)
            (2): Conv2d(64, 64, kernel_size=(3, 3), stride=(1, 1), padding=(1, 1))
            (3): ChannelAttention(
              (attention): Sequential(
                (0): AdaptiveAvgPool2d(output_size=1)
                (1): Conv2d(64, 4, kernel_size=(1, 1), stride=(1, 1))
                (2): ReLU(inplace=True)
                (3): Conv2d(4, 64, kernel_size=(1, 1), stride=(1, 1))
                (4): Sigmoid()
              )
            )
          )
        )
        (4): RCAB(
          (rcab): Sequential(
            (0): Conv2d(64, 64, kernel_size=(3, 3), stride=(1, 1), padding=(1, 1))
            (1): ReLU(inplace=True)
            (2): Conv2d(64, 64, kernel_size=(3, 3), stride=(1, 1), padding=(1, 1))
            (3): ChannelAttention(
              (attention): Sequential(
                (0): AdaptiveAvgPool2d(output_size=1)
                (1): Conv2d(64, 4, kernel_size=(1, 1), stride=(1, 1))
                (2): ReLU(inplace=True)
                (3): Conv2d(4, 64, kernel_size=(1, 1), stride=(1, 1))
                (4): Sigmoid()
              )
            )
          )
        )
        (5): RCAB(
          (rcab): Sequential(
            (0): Conv2d(64, 64, kernel_size=(3, 3), stride=(1, 1), padding=(1, 1))
            (1): ReLU(inplace=True)
            (2): Conv2d(64, 64, kernel_size=(3, 3), stride=(1, 1), padding=(1, 1))
            (3): ChannelAttention(
              (attention): Sequential(
                (0): AdaptiveAvgPool2d(output_size=1)
                (1): Conv2d(64, 4, kernel_size=(1, 1), stride=(1, 1))
                (2): ReLU(inplace=True)
                (3): Conv2d(4, 64, kernel_size=(1, 1), stride=(1, 1))
                (4): Sigmoid()
              )
            )
          )
        )
        (6): RCAB(
          (rcab): Sequential(
            (0): Conv2d(64, 64, kernel_size=(3, 3), stride=(1, 1), padding=(1, 1))
            (1): ReLU(inplace=True)
            (2): Conv2d(64, 64, kernel_size=(3, 3), stride=(1, 1), padding=(1, 1))
            (3): ChannelAttention(
              (attention): Sequential(
                (0): AdaptiveAvgPool2d(output_size=1)
                (1): Conv2d(64, 4, kernel_size=(1, 1), stride=(1, 1))
                (2): ReLU(inplace=True)
                (3): Conv2d(4, 64, kernel_size=(1, 1), stride=(1, 1))
                (4): Sigmoid()
              )
            )
          )
        )
        (7): RCAB(
          (rcab): Sequential(
            (0): Conv2d(64, 64, kernel_size=(3, 3), stride=(1, 1), padding=(1, 1))
            (1): ReLU(inplace=True)
            (2): Conv2d(64, 64, kernel_size=(3, 3), stride=(1, 1), padding=(1, 1))
            (3): ChannelAttention(
              (attention): Sequential(
                (0): AdaptiveAvgPool2d(output_size=1)
                (1): Conv2d(64, 4, kernel_size=(1, 1), stride=(1, 1))
                (2): ReLU(inplace=True)
                (3): Conv2d(4, 64, kernel_size=(1, 1), stride=(1, 1))
                (4): Sigmoid()
              )
            )
          )
        )
        (8): RCAB(
          (rcab): Sequential(
            (0): Conv2d(64, 64, kernel_size=(3, 3), stride=(1, 1), padding=(1, 1))
            (1): ReLU(inplace=True)
            (2): Conv2d(64, 64, kernel_size=(3, 3), stride=(1, 1), padding=(1, 1))
            (3): ChannelAttention(
              (attention): Sequential(
                (0): AdaptiveAvgPool2d(output_size=1)
                (1): Conv2d(64, 4, kernel_size=(1, 1), stride=(1, 1))
                (2): ReLU(inplace=True)
                (3): Conv2d(4, 64, kernel_size=(1, 1), stride=(1, 1))
                (4): Sigmoid()
              )
            )
          )
        )
        (9): RCAB(
          (rcab): Sequential(
            (0): Conv2d(64, 64, kernel_size=(3, 3), stride=(1, 1), padding=(1, 1))
            (1): ReLU(inplace=True)
            (2): Conv2d(64, 64, kernel_size=(3, 3), stride=(1, 1), padding=(1, 1))
            (3): ChannelAttention(
              (attention): Sequential(
                (0): AdaptiveAvgPool2d(output_size=1)
                (1): Conv2d(64, 4, kernel_size=(1, 1), stride=(1, 1))
                (2): ReLU(inplace=True)
                (3): Conv2d(4, 64, kernel_size=(1, 1), stride=(1, 1))
                (4): Sigmoid()
              )
            )
          )
        )
        (10): RCAB(
          (rcab): Sequential(
            (0): Conv2d(64, 64, kernel_size=(3, 3), stride=(1, 1), padding=(1, 1))
            (1): ReLU(inplace=True)
            (2): Conv2d(64, 64, kernel_size=(3, 3), stride=(1, 1), padding=(1, 1))
            (3): ChannelAttention(
              (attention): Sequential(
                (0): AdaptiveAvgPool2d(output_size=1)
                (1): Conv2d(64, 4, kernel_size=(1, 1), stride=(1, 1))
                (2): ReLU(inplace=True)
                (3): Conv2d(4, 64, kernel_size=(1, 1), stride=(1, 1))
                (4): Sigmoid()
              )
            )
          )
        )
        (11): RCAB(
          (rcab): Sequential(
            (0): Conv2d(64, 64, kernel_size=(3, 3), stride=(1, 1), padding=(1, 1))
            (1): ReLU(inplace=True)
            (2): Conv2d(64, 64, kernel_size=(3, 3), stride=(1, 1), padding=(1, 1))
            (3): ChannelAttention(
              (attention): Sequential(
                (0): AdaptiveAvgPool2d(output_size=1)
                (1): Conv2d(64, 4, kernel_size=(1, 1), stride=(1, 1))
                (2): ReLU(inplace=True)
                (3): Conv2d(4, 64, kernel_size=(1, 1), stride=(1, 1))
                (4): Sigmoid()
              )
            )
          )
        )
        (12): RCAB(
          (rcab): Sequential(
            (0): Conv2d(64, 64, kernel_size=(3, 3), stride=(1, 1), padding=(1, 1))
            (1): ReLU(inplace=True)
            (2): Conv2d(64, 64, kernel_size=(3, 3), stride=(1, 1), padding=(1, 1))
            (3): ChannelAttention(
              (attention): Sequential(
                (0): AdaptiveAvgPool2d(output_size=1)
                (1): Conv2d(64, 4, kernel_size=(1, 1), stride=(1, 1))
                (2): ReLU(inplace=True)
                (3): Conv2d(4, 64, kernel_size=(1, 1), stride=(1, 1))
                (4): Sigmoid()
              )
            )
          )
        )
        (13): RCAB(
          (rcab): Sequential(
            (0): Conv2d(64, 64, kernel_size=(3, 3), stride=(1, 1), padding=(1, 1))
            (1): ReLU(inplace=True)
            (2): Conv2d(64, 64, kernel_size=(3, 3), stride=(1, 1), padding=(1, 1))
            (3): ChannelAttention(
              (attention): Sequential(
                (0): AdaptiveAvgPool2d(output_size=1)
                (1): Conv2d(64, 4, kernel_size=(1, 1), stride=(1, 1))
                (2): ReLU(inplace=True)
                (3): Conv2d(4, 64, kernel_size=(1, 1), stride=(1, 1))
                (4): Sigmoid()
              )
            )
          )
        )
        (14): RCAB(
          (rcab): Sequential(
            (0): Conv2d(64, 64, kernel_size=(3, 3), stride=(1, 1), padding=(1, 1))
            (1): ReLU(inplace=True)
            (2): Conv2d(64, 64, kernel_size=(3, 3), stride=(1, 1), padding=(1, 1))
            (3): ChannelAttention(
              (attention): Sequential(
                (0): AdaptiveAvgPool2d(output_size=1)
                (1): Conv2d(64, 4, kernel_size=(1, 1), stride=(1, 1))
                (2): ReLU(inplace=True)
                (3): Conv2d(4, 64, kernel_size=(1, 1), stride=(1, 1))
                (4): Sigmoid()
              )
            )
          )
        )
        (15): RCAB(
          (rcab): Sequential(
            (0): Conv2d(64, 64, kernel_size=(3, 3), stride=(1, 1), padding=(1, 1))
            (1): ReLU(inplace=True)
            (2): Conv2d(64, 64, kernel_size=(3, 3), stride=(1, 1), padding=(1, 1))
            (3): ChannelAttention(
              (attention): Sequential(
                (0): AdaptiveAvgPool2d(output_size=1)
                (1): Conv2d(64, 4, kernel_size=(1, 1), stride=(1, 1))
                (2): ReLU(inplace=True)
                (3): Conv2d(4, 64, kernel_size=(1, 1), stride=(1, 1))
                (4): Sigmoid()
              )
            )
          )
        )
        (16): RCAB(
          (rcab): Sequential(
            (0): Conv2d(64, 64, kernel_size=(3, 3), stride=(1, 1), padding=(1, 1))
            (1): ReLU(inplace=True)
            (2): Conv2d(64, 64, kernel_size=(3, 3), stride=(1, 1), padding=(1, 1))
            (3): ChannelAttention(
              (attention): Sequential(
                (0): AdaptiveAvgPool2d(output_size=1)
                (1): Conv2d(64, 4, kernel_size=(1, 1), stride=(1, 1))
                (2): ReLU(inplace=True)
                (3): Conv2d(4, 64, kernel_size=(1, 1), stride=(1, 1))
                (4): Sigmoid()
              )
            )
          )
        )
        (17): RCAB(
          (rcab): Sequential(
            (0): Conv2d(64, 64, kernel_size=(3, 3), stride=(1, 1), padding=(1, 1))
            (1): ReLU(inplace=True)
            (2): Conv2d(64, 64, kernel_size=(3, 3), stride=(1, 1), padding=(1, 1))
            (3): ChannelAttention(
              (attention): Sequential(
                (0): AdaptiveAvgPool2d(output_size=1)
                (1): Conv2d(64, 4, kernel_size=(1, 1), stride=(1, 1))
                (2): ReLU(inplace=True)
                (3): Conv2d(4, 64, kernel_size=(1, 1), stride=(1, 1))
                (4): Sigmoid()
              )
            )
          )
        )
        (18): RCAB(
          (rcab): Sequential(
            (0): Conv2d(64, 64, kernel_size=(3, 3), stride=(1, 1), padding=(1, 1))
            (1): ReLU(inplace=True)
            (2): Conv2d(64, 64, kernel_size=(3, 3), stride=(1, 1), padding=(1, 1))
            (3): ChannelAttention(
              (attention): Sequential(
                (0): AdaptiveAvgPool2d(output_size=1)
                (1): Conv2d(64, 4, kernel_size=(1, 1), stride=(1, 1))
                (2): ReLU(inplace=True)
                (3): Conv2d(4, 64, kernel_size=(1, 1), stride=(1, 1))
                (4): Sigmoid()
              )
            )
          )
        )
        (19): RCAB(
          (rcab): Sequential(
            (0): Conv2d(64, 64, kernel_size=(3, 3), stride=(1, 1), padding=(1, 1))
            (1): ReLU(inplace=True)
            (2): Conv2d(64, 64, kernel_size=(3, 3), stride=(1, 1), padding=(1, 1))
            (3): ChannelAttention(
              (attention): Sequential(
                (0): AdaptiveAvgPool2d(output_size=1)
                (1): Conv2d(64, 4, kernel_size=(1, 1), stride=(1, 1))
                (2): ReLU(inplace=True)
                (3): Conv2d(4, 64, kernel_size=(1, 1), stride=(1, 1))
                (4): Sigmoid()
              )
            )
          )
        )
      )
      (conv): Conv2d(64, 64, kernel_size=(3, 3), stride=(1, 1), padding=(1, 1))
    )
    (2): ResidualGroup(
      (residual_group): Sequential(
        (0): RCAB(
          (rcab): Sequential(
            (0): Conv2d(64, 64, kernel_size=(3, 3), stride=(1, 1), padding=(1, 1))
            (1): ReLU(inplace=True)
            (2): Conv2d(64, 64, kernel_size=(3, 3), stride=(1, 1), padding=(1, 1))
            (3): ChannelAttention(
              (attention): Sequential(
                (0): AdaptiveAvgPool2d(output_size=1)
                (1): Conv2d(64, 4, kernel_size=(1, 1), stride=(1, 1))
                (2): ReLU(inplace=True)
                (3): Conv2d(4, 64, kernel_size=(1, 1), stride=(1, 1))
                (4): Sigmoid()
              )
            )
          )
        )
        (1): RCAB(
          (rcab): Sequential(
            (0): Conv2d(64, 64, kernel_size=(3, 3), stride=(1, 1), padding=(1, 1))
            (1): ReLU(inplace=True)
            (2): Conv2d(64, 64, kernel_size=(3, 3), stride=(1, 1), padding=(1, 1))
            (3): ChannelAttention(
              (attention): Sequential(
                (0): AdaptiveAvgPool2d(output_size=1)
                (1): Conv2d(64, 4, kernel_size=(1, 1), stride=(1, 1))
                (2): ReLU(inplace=True)
                (3): Conv2d(4, 64, kernel_size=(1, 1), stride=(1, 1))
                (4): Sigmoid()
              )
            )
          )
        )
        (2): RCAB(
          (rcab): Sequential(
            (0): Conv2d(64, 64, kernel_size=(3, 3), stride=(1, 1), padding=(1, 1))
            (1): ReLU(inplace=True)
            (2): Conv2d(64, 64, kernel_size=(3, 3), stride=(1, 1), padding=(1, 1))
            (3): ChannelAttention(
              (attention): Sequential(
                (0): AdaptiveAvgPool2d(output_size=1)
                (1): Conv2d(64, 4, kernel_size=(1, 1), stride=(1, 1))
                (2): ReLU(inplace=True)
                (3): Conv2d(4, 64, kernel_size=(1, 1), stride=(1, 1))
                (4): Sigmoid()
              )
            )
          )
        )
        (3): RCAB(
          (rcab): Sequential(
            (0): Conv2d(64, 64, kernel_size=(3, 3), stride=(1, 1), padding=(1, 1))
            (1): ReLU(inplace=True)
            (2): Conv2d(64, 64, kernel_size=(3, 3), stride=(1, 1), padding=(1, 1))
            (3): ChannelAttention(
              (attention): Sequential(
                (0): AdaptiveAvgPool2d(output_size=1)
                (1): Conv2d(64, 4, kernel_size=(1, 1), stride=(1, 1))
                (2): ReLU(inplace=True)
                (3): Conv2d(4, 64, kernel_size=(1, 1), stride=(1, 1))
                (4): Sigmoid()
              )
            )
          )
        )
        (4): RCAB(
          (rcab): Sequential(
            (0): Conv2d(64, 64, kernel_size=(3, 3), stride=(1, 1), padding=(1, 1))
            (1): ReLU(inplace=True)
            (2): Conv2d(64, 64, kernel_size=(3, 3), stride=(1, 1), padding=(1, 1))
            (3): ChannelAttention(
              (attention): Sequential(
                (0): AdaptiveAvgPool2d(output_size=1)
                (1): Conv2d(64, 4, kernel_size=(1, 1), stride=(1, 1))
                (2): ReLU(inplace=True)
                (3): Conv2d(4, 64, kernel_size=(1, 1), stride=(1, 1))
                (4): Sigmoid()
              )
            )
          )
        )
        (5): RCAB(
          (rcab): Sequential(
            (0): Conv2d(64, 64, kernel_size=(3, 3), stride=(1, 1), padding=(1, 1))
            (1): ReLU(inplace=True)
            (2): Conv2d(64, 64, kernel_size=(3, 3), stride=(1, 1), padding=(1, 1))
            (3): ChannelAttention(
              (attention): Sequential(
                (0): AdaptiveAvgPool2d(output_size=1)
                (1): Conv2d(64, 4, kernel_size=(1, 1), stride=(1, 1))
                (2): ReLU(inplace=True)
                (3): Conv2d(4, 64, kernel_size=(1, 1), stride=(1, 1))
                (4): Sigmoid()
              )
            )
          )
        )
        (6): RCAB(
          (rcab): Sequential(
            (0): Conv2d(64, 64, kernel_size=(3, 3), stride=(1, 1), padding=(1, 1))
            (1): ReLU(inplace=True)
            (2): Conv2d(64, 64, kernel_size=(3, 3), stride=(1, 1), padding=(1, 1))
            (3): ChannelAttention(
              (attention): Sequential(
                (0): AdaptiveAvgPool2d(output_size=1)
                (1): Conv2d(64, 4, kernel_size=(1, 1), stride=(1, 1))
                (2): ReLU(inplace=True)
                (3): Conv2d(4, 64, kernel_size=(1, 1), stride=(1, 1))
                (4): Sigmoid()
              )
            )
          )
        )
        (7): RCAB(
          (rcab): Sequential(
            (0): Conv2d(64, 64, kernel_size=(3, 3), stride=(1, 1), padding=(1, 1))
            (1): ReLU(inplace=True)
            (2): Conv2d(64, 64, kernel_size=(3, 3), stride=(1, 1), padding=(1, 1))
            (3): ChannelAttention(
              (attention): Sequential(
                (0): AdaptiveAvgPool2d(output_size=1)
                (1): Conv2d(64, 4, kernel_size=(1, 1), stride=(1, 1))
                (2): ReLU(inplace=True)
                (3): Conv2d(4, 64, kernel_size=(1, 1), stride=(1, 1))
                (4): Sigmoid()
              )
            )
          )
        )
        (8): RCAB(
          (rcab): Sequential(
            (0): Conv2d(64, 64, kernel_size=(3, 3), stride=(1, 1), padding=(1, 1))
            (1): ReLU(inplace=True)
            (2): Conv2d(64, 64, kernel_size=(3, 3), stride=(1, 1), padding=(1, 1))
            (3): ChannelAttention(
              (attention): Sequential(
                (0): AdaptiveAvgPool2d(output_size=1)
                (1): Conv2d(64, 4, kernel_size=(1, 1), stride=(1, 1))
                (2): ReLU(inplace=True)
                (3): Conv2d(4, 64, kernel_size=(1, 1), stride=(1, 1))
                (4): Sigmoid()
              )
            )
          )
        )
        (9): RCAB(
          (rcab): Sequential(
            (0): Conv2d(64, 64, kernel_size=(3, 3), stride=(1, 1), padding=(1, 1))
            (1): ReLU(inplace=True)
            (2): Conv2d(64, 64, kernel_size=(3, 3), stride=(1, 1), padding=(1, 1))
            (3): ChannelAttention(
              (attention): Sequential(
                (0): AdaptiveAvgPool2d(output_size=1)
                (1): Conv2d(64, 4, kernel_size=(1, 1), stride=(1, 1))
                (2): ReLU(inplace=True)
                (3): Conv2d(4, 64, kernel_size=(1, 1), stride=(1, 1))
                (4): Sigmoid()
              )
            )
          )
        )
        (10): RCAB(
          (rcab): Sequential(
            (0): Conv2d(64, 64, kernel_size=(3, 3), stride=(1, 1), padding=(1, 1))
            (1): ReLU(inplace=True)
            (2): Conv2d(64, 64, kernel_size=(3, 3), stride=(1, 1), padding=(1, 1))
            (3): ChannelAttention(
              (attention): Sequential(
                (0): AdaptiveAvgPool2d(output_size=1)
                (1): Conv2d(64, 4, kernel_size=(1, 1), stride=(1, 1))
                (2): ReLU(inplace=True)
                (3): Conv2d(4, 64, kernel_size=(1, 1), stride=(1, 1))
                (4): Sigmoid()
              )
            )
          )
        )
        (11): RCAB(
          (rcab): Sequential(
            (0): Conv2d(64, 64, kernel_size=(3, 3), stride=(1, 1), padding=(1, 1))
            (1): ReLU(inplace=True)
            (2): Conv2d(64, 64, kernel_size=(3, 3), stride=(1, 1), padding=(1, 1))
            (3): ChannelAttention(
              (attention): Sequential(
                (0): AdaptiveAvgPool2d(output_size=1)
                (1): Conv2d(64, 4, kernel_size=(1, 1), stride=(1, 1))
                (2): ReLU(inplace=True)
                (3): Conv2d(4, 64, kernel_size=(1, 1), stride=(1, 1))
                (4): Sigmoid()
              )
            )
          )
        )
        (12): RCAB(
          (rcab): Sequential(
            (0): Conv2d(64, 64, kernel_size=(3, 3), stride=(1, 1), padding=(1, 1))
            (1): ReLU(inplace=True)
            (2): Conv2d(64, 64, kernel_size=(3, 3), stride=(1, 1), padding=(1, 1))
            (3): ChannelAttention(
              (attention): Sequential(
                (0): AdaptiveAvgPool2d(output_size=1)
                (1): Conv2d(64, 4, kernel_size=(1, 1), stride=(1, 1))
                (2): ReLU(inplace=True)
                (3): Conv2d(4, 64, kernel_size=(1, 1), stride=(1, 1))
                (4): Sigmoid()
              )
            )
          )
        )
        (13): RCAB(
          (rcab): Sequential(
            (0): Conv2d(64, 64, kernel_size=(3, 3), stride=(1, 1), padding=(1, 1))
            (1): ReLU(inplace=True)
            (2): Conv2d(64, 64, kernel_size=(3, 3), stride=(1, 1), padding=(1, 1))
            (3): ChannelAttention(
              (attention): Sequential(
                (0): AdaptiveAvgPool2d(output_size=1)
                (1): Conv2d(64, 4, kernel_size=(1, 1), stride=(1, 1))
                (2): ReLU(inplace=True)
                (3): Conv2d(4, 64, kernel_size=(1, 1), stride=(1, 1))
                (4): Sigmoid()
              )
            )
          )
        )
        (14): RCAB(
          (rcab): Sequential(
            (0): Conv2d(64, 64, kernel_size=(3, 3), stride=(1, 1), padding=(1, 1))
            (1): ReLU(inplace=True)
            (2): Conv2d(64, 64, kernel_size=(3, 3), stride=(1, 1), padding=(1, 1))
            (3): ChannelAttention(
              (attention): Sequential(
                (0): AdaptiveAvgPool2d(output_size=1)
                (1): Conv2d(64, 4, kernel_size=(1, 1), stride=(1, 1))
                (2): ReLU(inplace=True)
                (3): Conv2d(4, 64, kernel_size=(1, 1), stride=(1, 1))
                (4): Sigmoid()
              )
            )
          )
        )
        (15): RCAB(
          (rcab): Sequential(
            (0): Conv2d(64, 64, kernel_size=(3, 3), stride=(1, 1), padding=(1, 1))
            (1): ReLU(inplace=True)
            (2): Conv2d(64, 64, kernel_size=(3, 3), stride=(1, 1), padding=(1, 1))
            (3): ChannelAttention(
              (attention): Sequential(
                (0): AdaptiveAvgPool2d(output_size=1)
                (1): Conv2d(64, 4, kernel_size=(1, 1), stride=(1, 1))
                (2): ReLU(inplace=True)
                (3): Conv2d(4, 64, kernel_size=(1, 1), stride=(1, 1))
                (4): Sigmoid()
              )
            )
          )
        )
        (16): RCAB(
          (rcab): Sequential(
            (0): Conv2d(64, 64, kernel_size=(3, 3), stride=(1, 1), padding=(1, 1))
            (1): ReLU(inplace=True)
            (2): Conv2d(64, 64, kernel_size=(3, 3), stride=(1, 1), padding=(1, 1))
            (3): ChannelAttention(
              (attention): Sequential(
                (0): AdaptiveAvgPool2d(output_size=1)
                (1): Conv2d(64, 4, kernel_size=(1, 1), stride=(1, 1))
                (2): ReLU(inplace=True)
                (3): Conv2d(4, 64, kernel_size=(1, 1), stride=(1, 1))
                (4): Sigmoid()
              )
            )
          )
        )
        (17): RCAB(
          (rcab): Sequential(
            (0): Conv2d(64, 64, kernel_size=(3, 3), stride=(1, 1), padding=(1, 1))
            (1): ReLU(inplace=True)
            (2): Conv2d(64, 64, kernel_size=(3, 3), stride=(1, 1), padding=(1, 1))
            (3): ChannelAttention(
              (attention): Sequential(
                (0): AdaptiveAvgPool2d(output_size=1)
                (1): Conv2d(64, 4, kernel_size=(1, 1), stride=(1, 1))
                (2): ReLU(inplace=True)
                (3): Conv2d(4, 64, kernel_size=(1, 1), stride=(1, 1))
                (4): Sigmoid()
              )
            )
          )
        )
        (18): RCAB(
          (rcab): Sequential(
            (0): Conv2d(64, 64, kernel_size=(3, 3), stride=(1, 1), padding=(1, 1))
            (1): ReLU(inplace=True)
            (2): Conv2d(64, 64, kernel_size=(3, 3), stride=(1, 1), padding=(1, 1))
            (3): ChannelAttention(
              (attention): Sequential(
                (0): AdaptiveAvgPool2d(output_size=1)
                (1): Conv2d(64, 4, kernel_size=(1, 1), stride=(1, 1))
                (2): ReLU(inplace=True)
                (3): Conv2d(4, 64, kernel_size=(1, 1), stride=(1, 1))
                (4): Sigmoid()
              )
            )
          )
        )
        (19): RCAB(
          (rcab): Sequential(
            (0): Conv2d(64, 64, kernel_size=(3, 3), stride=(1, 1), padding=(1, 1))
            (1): ReLU(inplace=True)
            (2): Conv2d(64, 64, kernel_size=(3, 3), stride=(1, 1), padding=(1, 1))
            (3): ChannelAttention(
              (attention): Sequential(
                (0): AdaptiveAvgPool2d(output_size=1)
                (1): Conv2d(64, 4, kernel_size=(1, 1), stride=(1, 1))
                (2): ReLU(inplace=True)
                (3): Conv2d(4, 64, kernel_size=(1, 1), stride=(1, 1))
                (4): Sigmoid()
              )
            )
          )
        )
      )
      (conv): Conv2d(64, 64, kernel_size=(3, 3), stride=(1, 1), padding=(1, 1))
    )
    (3): ResidualGroup(
      (residual_group): Sequential(
        (0): RCAB(
          (rcab): Sequential(
            (0): Conv2d(64, 64, kernel_size=(3, 3), stride=(1, 1), padding=(1, 1))
            (1): ReLU(inplace=True)
            (2): Conv2d(64, 64, kernel_size=(3, 3), stride=(1, 1), padding=(1, 1))
            (3): ChannelAttention(
              (attention): Sequential(
                (0): AdaptiveAvgPool2d(output_size=1)
                (1): Conv2d(64, 4, kernel_size=(1, 1), stride=(1, 1))
                (2): ReLU(inplace=True)
                (3): Conv2d(4, 64, kernel_size=(1, 1), stride=(1, 1))
                (4): Sigmoid()
              )
            )
          )
        )
        (1): RCAB(
          (rcab): Sequential(
            (0): Conv2d(64, 64, kernel_size=(3, 3), stride=(1, 1), padding=(1, 1))
            (1): ReLU(inplace=True)
            (2): Conv2d(64, 64, kernel_size=(3, 3), stride=(1, 1), padding=(1, 1))
            (3): ChannelAttention(
              (attention): Sequential(
                (0): AdaptiveAvgPool2d(output_size=1)
                (1): Conv2d(64, 4, kernel_size=(1, 1), stride=(1, 1))
                (2): ReLU(inplace=True)
                (3): Conv2d(4, 64, kernel_size=(1, 1), stride=(1, 1))
                (4): Sigmoid()
              )
            )
          )
        )
        (2): RCAB(
          (rcab): Sequential(
            (0): Conv2d(64, 64, kernel_size=(3, 3), stride=(1, 1), padding=(1, 1))
            (1): ReLU(inplace=True)
            (2): Conv2d(64, 64, kernel_size=(3, 3), stride=(1, 1), padding=(1, 1))
            (3): ChannelAttention(
              (attention): Sequential(
                (0): AdaptiveAvgPool2d(output_size=1)
                (1): Conv2d(64, 4, kernel_size=(1, 1), stride=(1, 1))
                (2): ReLU(inplace=True)
                (3): Conv2d(4, 64, kernel_size=(1, 1), stride=(1, 1))
                (4): Sigmoid()
              )
            )
          )
        )
        (3): RCAB(
          (rcab): Sequential(
            (0): Conv2d(64, 64, kernel_size=(3, 3), stride=(1, 1), padding=(1, 1))
            (1): ReLU(inplace=True)
            (2): Conv2d(64, 64, kernel_size=(3, 3), stride=(1, 1), padding=(1, 1))
            (3): ChannelAttention(
              (attention): Sequential(
                (0): AdaptiveAvgPool2d(output_size=1)
                (1): Conv2d(64, 4, kernel_size=(1, 1), stride=(1, 1))
                (2): ReLU(inplace=True)
                (3): Conv2d(4, 64, kernel_size=(1, 1), stride=(1, 1))
                (4): Sigmoid()
              )
            )
          )
        )
        (4): RCAB(
          (rcab): Sequential(
            (0): Conv2d(64, 64, kernel_size=(3, 3), stride=(1, 1), padding=(1, 1))
            (1): ReLU(inplace=True)
            (2): Conv2d(64, 64, kernel_size=(3, 3), stride=(1, 1), padding=(1, 1))
            (3): ChannelAttention(
              (attention): Sequential(
                (0): AdaptiveAvgPool2d(output_size=1)
                (1): Conv2d(64, 4, kernel_size=(1, 1), stride=(1, 1))
                (2): ReLU(inplace=True)
                (3): Conv2d(4, 64, kernel_size=(1, 1), stride=(1, 1))
                (4): Sigmoid()
              )
            )
          )
        )
        (5): RCAB(
          (rcab): Sequential(
            (0): Conv2d(64, 64, kernel_size=(3, 3), stride=(1, 1), padding=(1, 1))
            (1): ReLU(inplace=True)
            (2): Conv2d(64, 64, kernel_size=(3, 3), stride=(1, 1), padding=(1, 1))
            (3): ChannelAttention(
              (attention): Sequential(
                (0): AdaptiveAvgPool2d(output_size=1)
                (1): Conv2d(64, 4, kernel_size=(1, 1), stride=(1, 1))
                (2): ReLU(inplace=True)
                (3): Conv2d(4, 64, kernel_size=(1, 1), stride=(1, 1))
                (4): Sigmoid()
              )
            )
          )
        )
        (6): RCAB(
          (rcab): Sequential(
            (0): Conv2d(64, 64, kernel_size=(3, 3), stride=(1, 1), padding=(1, 1))
            (1): ReLU(inplace=True)
            (2): Conv2d(64, 64, kernel_size=(3, 3), stride=(1, 1), padding=(1, 1))
            (3): ChannelAttention(
              (attention): Sequential(
                (0): AdaptiveAvgPool2d(output_size=1)
                (1): Conv2d(64, 4, kernel_size=(1, 1), stride=(1, 1))
                (2): ReLU(inplace=True)
                (3): Conv2d(4, 64, kernel_size=(1, 1), stride=(1, 1))
                (4): Sigmoid()
              )
            )
          )
        )
        (7): RCAB(
          (rcab): Sequential(
            (0): Conv2d(64, 64, kernel_size=(3, 3), stride=(1, 1), padding=(1, 1))
            (1): ReLU(inplace=True)
            (2): Conv2d(64, 64, kernel_size=(3, 3), stride=(1, 1), padding=(1, 1))
            (3): ChannelAttention(
              (attention): Sequential(
                (0): AdaptiveAvgPool2d(output_size=1)
                (1): Conv2d(64, 4, kernel_size=(1, 1), stride=(1, 1))
                (2): ReLU(inplace=True)
                (3): Conv2d(4, 64, kernel_size=(1, 1), stride=(1, 1))
                (4): Sigmoid()
              )
            )
          )
        )
        (8): RCAB(
          (rcab): Sequential(
            (0): Conv2d(64, 64, kernel_size=(3, 3), stride=(1, 1), padding=(1, 1))
            (1): ReLU(inplace=True)
            (2): Conv2d(64, 64, kernel_size=(3, 3), stride=(1, 1), padding=(1, 1))
            (3): ChannelAttention(
              (attention): Sequential(
                (0): AdaptiveAvgPool2d(output_size=1)
                (1): Conv2d(64, 4, kernel_size=(1, 1), stride=(1, 1))
                (2): ReLU(inplace=True)
                (3): Conv2d(4, 64, kernel_size=(1, 1), stride=(1, 1))
                (4): Sigmoid()
              )
            )
          )
        )
        (9): RCAB(
          (rcab): Sequential(
            (0): Conv2d(64, 64, kernel_size=(3, 3), stride=(1, 1), padding=(1, 1))
            (1): ReLU(inplace=True)
            (2): Conv2d(64, 64, kernel_size=(3, 3), stride=(1, 1), padding=(1, 1))
            (3): ChannelAttention(
              (attention): Sequential(
                (0): AdaptiveAvgPool2d(output_size=1)
                (1): Conv2d(64, 4, kernel_size=(1, 1), stride=(1, 1))
                (2): ReLU(inplace=True)
                (3): Conv2d(4, 64, kernel_size=(1, 1), stride=(1, 1))
                (4): Sigmoid()
              )
            )
          )
        )
        (10): RCAB(
          (rcab): Sequential(
            (0): Conv2d(64, 64, kernel_size=(3, 3), stride=(1, 1), padding=(1, 1))
            (1): ReLU(inplace=True)
            (2): Conv2d(64, 64, kernel_size=(3, 3), stride=(1, 1), padding=(1, 1))
            (3): ChannelAttention(
              (attention): Sequential(
                (0): AdaptiveAvgPool2d(output_size=1)
                (1): Conv2d(64, 4, kernel_size=(1, 1), stride=(1, 1))
                (2): ReLU(inplace=True)
                (3): Conv2d(4, 64, kernel_size=(1, 1), stride=(1, 1))
                (4): Sigmoid()
              )
            )
          )
        )
        (11): RCAB(
          (rcab): Sequential(
            (0): Conv2d(64, 64, kernel_size=(3, 3), stride=(1, 1), padding=(1, 1))
            (1): ReLU(inplace=True)
            (2): Conv2d(64, 64, kernel_size=(3, 3), stride=(1, 1), padding=(1, 1))
            (3): ChannelAttention(
              (attention): Sequential(
                (0): AdaptiveAvgPool2d(output_size=1)
                (1): Conv2d(64, 4, kernel_size=(1, 1), stride=(1, 1))
                (2): ReLU(inplace=True)
                (3): Conv2d(4, 64, kernel_size=(1, 1), stride=(1, 1))
                (4): Sigmoid()
              )
            )
          )
        )
        (12): RCAB(
          (rcab): Sequential(
            (0): Conv2d(64, 64, kernel_size=(3, 3), stride=(1, 1), padding=(1, 1))
            (1): ReLU(inplace=True)
            (2): Conv2d(64, 64, kernel_size=(3, 3), stride=(1, 1), padding=(1, 1))
            (3): ChannelAttention(
              (attention): Sequential(
                (0): AdaptiveAvgPool2d(output_size=1)
                (1): Conv2d(64, 4, kernel_size=(1, 1), stride=(1, 1))
                (2): ReLU(inplace=True)
                (3): Conv2d(4, 64, kernel_size=(1, 1), stride=(1, 1))
                (4): Sigmoid()
              )
            )
          )
        )
        (13): RCAB(
          (rcab): Sequential(
            (0): Conv2d(64, 64, kernel_size=(3, 3), stride=(1, 1), padding=(1, 1))
            (1): ReLU(inplace=True)
            (2): Conv2d(64, 64, kernel_size=(3, 3), stride=(1, 1), padding=(1, 1))
            (3): ChannelAttention(
              (attention): Sequential(
                (0): AdaptiveAvgPool2d(output_size=1)
                (1): Conv2d(64, 4, kernel_size=(1, 1), stride=(1, 1))
                (2): ReLU(inplace=True)
                (3): Conv2d(4, 64, kernel_size=(1, 1), stride=(1, 1))
                (4): Sigmoid()
              )
            )
          )
        )
        (14): RCAB(
          (rcab): Sequential(
            (0): Conv2d(64, 64, kernel_size=(3, 3), stride=(1, 1), padding=(1, 1))
            (1): ReLU(inplace=True)
            (2): Conv2d(64, 64, kernel_size=(3, 3), stride=(1, 1), padding=(1, 1))
            (3): ChannelAttention(
              (attention): Sequential(
                (0): AdaptiveAvgPool2d(output_size=1)
                (1): Conv2d(64, 4, kernel_size=(1, 1), stride=(1, 1))
                (2): ReLU(inplace=True)
                (3): Conv2d(4, 64, kernel_size=(1, 1), stride=(1, 1))
                (4): Sigmoid()
              )
            )
          )
        )
        (15): RCAB(
          (rcab): Sequential(
            (0): Conv2d(64, 64, kernel_size=(3, 3), stride=(1, 1), padding=(1, 1))
            (1): ReLU(inplace=True)
            (2): Conv2d(64, 64, kernel_size=(3, 3), stride=(1, 1), padding=(1, 1))
            (3): ChannelAttention(
              (attention): Sequential(
                (0): AdaptiveAvgPool2d(output_size=1)
                (1): Conv2d(64, 4, kernel_size=(1, 1), stride=(1, 1))
                (2): ReLU(inplace=True)
                (3): Conv2d(4, 64, kernel_size=(1, 1), stride=(1, 1))
                (4): Sigmoid()
              )
            )
          )
        )
        (16): RCAB(
          (rcab): Sequential(
            (0): Conv2d(64, 64, kernel_size=(3, 3), stride=(1, 1), padding=(1, 1))
            (1): ReLU(inplace=True)
            (2): Conv2d(64, 64, kernel_size=(3, 3), stride=(1, 1), padding=(1, 1))
            (3): ChannelAttention(
              (attention): Sequential(
                (0): AdaptiveAvgPool2d(output_size=1)
                (1): Conv2d(64, 4, kernel_size=(1, 1), stride=(1, 1))
                (2): ReLU(inplace=True)
                (3): Conv2d(4, 64, kernel_size=(1, 1), stride=(1, 1))
                (4): Sigmoid()
              )
            )
          )
        )
        (17): RCAB(
          (rcab): Sequential(
            (0): Conv2d(64, 64, kernel_size=(3, 3), stride=(1, 1), padding=(1, 1))
            (1): ReLU(inplace=True)
            (2): Conv2d(64, 64, kernel_size=(3, 3), stride=(1, 1), padding=(1, 1))
            (3): ChannelAttention(
              (attention): Sequential(
                (0): AdaptiveAvgPool2d(output_size=1)
                (1): Conv2d(64, 4, kernel_size=(1, 1), stride=(1, 1))
                (2): ReLU(inplace=True)
                (3): Conv2d(4, 64, kernel_size=(1, 1), stride=(1, 1))
                (4): Sigmoid()
              )
            )
          )
        )
        (18): RCAB(
          (rcab): Sequential(
            (0): Conv2d(64, 64, kernel_size=(3, 3), stride=(1, 1), padding=(1, 1))
            (1): ReLU(inplace=True)
            (2): Conv2d(64, 64, kernel_size=(3, 3), stride=(1, 1), padding=(1, 1))
            (3): ChannelAttention(
              (attention): Sequential(
                (0): AdaptiveAvgPool2d(output_size=1)
                (1): Conv2d(64, 4, kernel_size=(1, 1), stride=(1, 1))
                (2): ReLU(inplace=True)
                (3): Conv2d(4, 64, kernel_size=(1, 1), stride=(1, 1))
                (4): Sigmoid()
              )
            )
          )
        )
        (19): RCAB(
          (rcab): Sequential(
            (0): Conv2d(64, 64, kernel_size=(3, 3), stride=(1, 1), padding=(1, 1))
            (1): ReLU(inplace=True)
            (2): Conv2d(64, 64, kernel_size=(3, 3), stride=(1, 1), padding=(1, 1))
            (3): ChannelAttention(
              (attention): Sequential(
                (0): AdaptiveAvgPool2d(output_size=1)
                (1): Conv2d(64, 4, kernel_size=(1, 1), stride=(1, 1))
                (2): ReLU(inplace=True)
                (3): Conv2d(4, 64, kernel_size=(1, 1), stride=(1, 1))
                (4): Sigmoid()
              )
            )
          )
        )
      )
      (conv): Conv2d(64, 64, kernel_size=(3, 3), stride=(1, 1), padding=(1, 1))
    )
    (4): ResidualGroup(
      (residual_group): Sequential(
        (0): RCAB(
          (rcab): Sequential(
            (0): Conv2d(64, 64, kernel_size=(3, 3), stride=(1, 1), padding=(1, 1))
            (1): ReLU(inplace=True)
            (2): Conv2d(64, 64, kernel_size=(3, 3), stride=(1, 1), padding=(1, 1))
            (3): ChannelAttention(
              (attention): Sequential(
                (0): AdaptiveAvgPool2d(output_size=1)
                (1): Conv2d(64, 4, kernel_size=(1, 1), stride=(1, 1))
                (2): ReLU(inplace=True)
                (3): Conv2d(4, 64, kernel_size=(1, 1), stride=(1, 1))
                (4): Sigmoid()
              )
            )
          )
        )
        (1): RCAB(
          (rcab): Sequential(
            (0): Conv2d(64, 64, kernel_size=(3, 3), stride=(1, 1), padding=(1, 1))
            (1): ReLU(inplace=True)
            (2): Conv2d(64, 64, kernel_size=(3, 3), stride=(1, 1), padding=(1, 1))
            (3): ChannelAttention(
              (attention): Sequential(
                (0): AdaptiveAvgPool2d(output_size=1)
                (1): Conv2d(64, 4, kernel_size=(1, 1), stride=(1, 1))
                (2): ReLU(inplace=True)
                (3): Conv2d(4, 64, kernel_size=(1, 1), stride=(1, 1))
                (4): Sigmoid()
              )
            )
          )
        )
        (2): RCAB(
          (rcab): Sequential(
            (0): Conv2d(64, 64, kernel_size=(3, 3), stride=(1, 1), padding=(1, 1))
            (1): ReLU(inplace=True)
            (2): Conv2d(64, 64, kernel_size=(3, 3), stride=(1, 1), padding=(1, 1))
            (3): ChannelAttention(
              (attention): Sequential(
                (0): AdaptiveAvgPool2d(output_size=1)
                (1): Conv2d(64, 4, kernel_size=(1, 1), stride=(1, 1))
                (2): ReLU(inplace=True)
                (3): Conv2d(4, 64, kernel_size=(1, 1), stride=(1, 1))
                (4): Sigmoid()
              )
            )
          )
        )
        (3): RCAB(
          (rcab): Sequential(
            (0): Conv2d(64, 64, kernel_size=(3, 3), stride=(1, 1), padding=(1, 1))
            (1): ReLU(inplace=True)
            (2): Conv2d(64, 64, kernel_size=(3, 3), stride=(1, 1), padding=(1, 1))
            (3): ChannelAttention(
              (attention): Sequential(
                (0): AdaptiveAvgPool2d(output_size=1)
                (1): Conv2d(64, 4, kernel_size=(1, 1), stride=(1, 1))
                (2): ReLU(inplace=True)
                (3): Conv2d(4, 64, kernel_size=(1, 1), stride=(1, 1))
                (4): Sigmoid()
              )
            )
          )
        )
        (4): RCAB(
          (rcab): Sequential(
            (0): Conv2d(64, 64, kernel_size=(3, 3), stride=(1, 1), padding=(1, 1))
            (1): ReLU(inplace=True)
            (2): Conv2d(64, 64, kernel_size=(3, 3), stride=(1, 1), padding=(1, 1))
            (3): ChannelAttention(
              (attention): Sequential(
                (0): AdaptiveAvgPool2d(output_size=1)
                (1): Conv2d(64, 4, kernel_size=(1, 1), stride=(1, 1))
                (2): ReLU(inplace=True)
                (3): Conv2d(4, 64, kernel_size=(1, 1), stride=(1, 1))
                (4): Sigmoid()
              )
            )
          )
        )
        (5): RCAB(
          (rcab): Sequential(
            (0): Conv2d(64, 64, kernel_size=(3, 3), stride=(1, 1), padding=(1, 1))
            (1): ReLU(inplace=True)
            (2): Conv2d(64, 64, kernel_size=(3, 3), stride=(1, 1), padding=(1, 1))
            (3): ChannelAttention(
              (attention): Sequential(
                (0): AdaptiveAvgPool2d(output_size=1)
                (1): Conv2d(64, 4, kernel_size=(1, 1), stride=(1, 1))
                (2): ReLU(inplace=True)
                (3): Conv2d(4, 64, kernel_size=(1, 1), stride=(1, 1))
                (4): Sigmoid()
              )
            )
          )
        )
        (6): RCAB(
          (rcab): Sequential(
            (0): Conv2d(64, 64, kernel_size=(3, 3), stride=(1, 1), padding=(1, 1))
            (1): ReLU(inplace=True)
            (2): Conv2d(64, 64, kernel_size=(3, 3), stride=(1, 1), padding=(1, 1))
            (3): ChannelAttention(
              (attention): Sequential(
                (0): AdaptiveAvgPool2d(output_size=1)
                (1): Conv2d(64, 4, kernel_size=(1, 1), stride=(1, 1))
                (2): ReLU(inplace=True)
                (3): Conv2d(4, 64, kernel_size=(1, 1), stride=(1, 1))
                (4): Sigmoid()
              )
            )
          )
        )
        (7): RCAB(
          (rcab): Sequential(
            (0): Conv2d(64, 64, kernel_size=(3, 3), stride=(1, 1), padding=(1, 1))
            (1): ReLU(inplace=True)
            (2): Conv2d(64, 64, kernel_size=(3, 3), stride=(1, 1), padding=(1, 1))
            (3): ChannelAttention(
              (attention): Sequential(
                (0): AdaptiveAvgPool2d(output_size=1)
                (1): Conv2d(64, 4, kernel_size=(1, 1), stride=(1, 1))
                (2): ReLU(inplace=True)
                (3): Conv2d(4, 64, kernel_size=(1, 1), stride=(1, 1))
                (4): Sigmoid()
              )
            )
          )
        )
        (8): RCAB(
          (rcab): Sequential(
            (0): Conv2d(64, 64, kernel_size=(3, 3), stride=(1, 1), padding=(1, 1))
            (1): ReLU(inplace=True)
            (2): Conv2d(64, 64, kernel_size=(3, 3), stride=(1, 1), padding=(1, 1))
            (3): ChannelAttention(
              (attention): Sequential(
                (0): AdaptiveAvgPool2d(output_size=1)
                (1): Conv2d(64, 4, kernel_size=(1, 1), stride=(1, 1))
                (2): ReLU(inplace=True)
                (3): Conv2d(4, 64, kernel_size=(1, 1), stride=(1, 1))
                (4): Sigmoid()
              )
            )
          )
        )
        (9): RCAB(
          (rcab): Sequential(
            (0): Conv2d(64, 64, kernel_size=(3, 3), stride=(1, 1), padding=(1, 1))
            (1): ReLU(inplace=True)
            (2): Conv2d(64, 64, kernel_size=(3, 3), stride=(1, 1), padding=(1, 1))
            (3): ChannelAttention(
              (attention): Sequential(
                (0): AdaptiveAvgPool2d(output_size=1)
                (1): Conv2d(64, 4, kernel_size=(1, 1), stride=(1, 1))
                (2): ReLU(inplace=True)
                (3): Conv2d(4, 64, kernel_size=(1, 1), stride=(1, 1))
                (4): Sigmoid()
              )
            )
          )
        )
        (10): RCAB(
          (rcab): Sequential(
            (0): Conv2d(64, 64, kernel_size=(3, 3), stride=(1, 1), padding=(1, 1))
            (1): ReLU(inplace=True)
            (2): Conv2d(64, 64, kernel_size=(3, 3), stride=(1, 1), padding=(1, 1))
            (3): ChannelAttention(
              (attention): Sequential(
                (0): AdaptiveAvgPool2d(output_size=1)
                (1): Conv2d(64, 4, kernel_size=(1, 1), stride=(1, 1))
                (2): ReLU(inplace=True)
                (3): Conv2d(4, 64, kernel_size=(1, 1), stride=(1, 1))
                (4): Sigmoid()
              )
            )
          )
        )
        (11): RCAB(
          (rcab): Sequential(
            (0): Conv2d(64, 64, kernel_size=(3, 3), stride=(1, 1), padding=(1, 1))
            (1): ReLU(inplace=True)
            (2): Conv2d(64, 64, kernel_size=(3, 3), stride=(1, 1), padding=(1, 1))
            (3): ChannelAttention(
              (attention): Sequential(
                (0): AdaptiveAvgPool2d(output_size=1)
                (1): Conv2d(64, 4, kernel_size=(1, 1), stride=(1, 1))
                (2): ReLU(inplace=True)
                (3): Conv2d(4, 64, kernel_size=(1, 1), stride=(1, 1))
                (4): Sigmoid()
              )
            )
          )
        )
        (12): RCAB(
          (rcab): Sequential(
            (0): Conv2d(64, 64, kernel_size=(3, 3), stride=(1, 1), padding=(1, 1))
            (1): ReLU(inplace=True)
            (2): Conv2d(64, 64, kernel_size=(3, 3), stride=(1, 1), padding=(1, 1))
            (3): ChannelAttention(
              (attention): Sequential(
                (0): AdaptiveAvgPool2d(output_size=1)
                (1): Conv2d(64, 4, kernel_size=(1, 1), stride=(1, 1))
                (2): ReLU(inplace=True)
                (3): Conv2d(4, 64, kernel_size=(1, 1), stride=(1, 1))
                (4): Sigmoid()
              )
            )
          )
        )
        (13): RCAB(
          (rcab): Sequential(
            (0): Conv2d(64, 64, kernel_size=(3, 3), stride=(1, 1), padding=(1, 1))
            (1): ReLU(inplace=True)
            (2): Conv2d(64, 64, kernel_size=(3, 3), stride=(1, 1), padding=(1, 1))
            (3): ChannelAttention(
              (attention): Sequential(
                (0): AdaptiveAvgPool2d(output_size=1)
                (1): Conv2d(64, 4, kernel_size=(1, 1), stride=(1, 1))
                (2): ReLU(inplace=True)
                (3): Conv2d(4, 64, kernel_size=(1, 1), stride=(1, 1))
                (4): Sigmoid()
              )
            )
          )
        )
        (14): RCAB(
          (rcab): Sequential(
            (0): Conv2d(64, 64, kernel_size=(3, 3), stride=(1, 1), padding=(1, 1))
            (1): ReLU(inplace=True)
            (2): Conv2d(64, 64, kernel_size=(3, 3), stride=(1, 1), padding=(1, 1))
            (3): ChannelAttention(
              (attention): Sequential(
                (0): AdaptiveAvgPool2d(output_size=1)
                (1): Conv2d(64, 4, kernel_size=(1, 1), stride=(1, 1))
                (2): ReLU(inplace=True)
                (3): Conv2d(4, 64, kernel_size=(1, 1), stride=(1, 1))
                (4): Sigmoid()
              )
            )
          )
        )
        (15): RCAB(
          (rcab): Sequential(
            (0): Conv2d(64, 64, kernel_size=(3, 3), stride=(1, 1), padding=(1, 1))
            (1): ReLU(inplace=True)
            (2): Conv2d(64, 64, kernel_size=(3, 3), stride=(1, 1), padding=(1, 1))
            (3): ChannelAttention(
              (attention): Sequential(
                (0): AdaptiveAvgPool2d(output_size=1)
                (1): Conv2d(64, 4, kernel_size=(1, 1), stride=(1, 1))
                (2): ReLU(inplace=True)
                (3): Conv2d(4, 64, kernel_size=(1, 1), stride=(1, 1))
                (4): Sigmoid()
              )
            )
          )
        )
        (16): RCAB(
          (rcab): Sequential(
            (0): Conv2d(64, 64, kernel_size=(3, 3), stride=(1, 1), padding=(1, 1))
            (1): ReLU(inplace=True)
            (2): Conv2d(64, 64, kernel_size=(3, 3), stride=(1, 1), padding=(1, 1))
            (3): ChannelAttention(
              (attention): Sequential(
                (0): AdaptiveAvgPool2d(output_size=1)
                (1): Conv2d(64, 4, kernel_size=(1, 1), stride=(1, 1))
                (2): ReLU(inplace=True)
                (3): Conv2d(4, 64, kernel_size=(1, 1), stride=(1, 1))
                (4): Sigmoid()
              )
            )
          )
        )
        (17): RCAB(
          (rcab): Sequential(
            (0): Conv2d(64, 64, kernel_size=(3, 3), stride=(1, 1), padding=(1, 1))
            (1): ReLU(inplace=True)
            (2): Conv2d(64, 64, kernel_size=(3, 3), stride=(1, 1), padding=(1, 1))
            (3): ChannelAttention(
              (attention): Sequential(
                (0): AdaptiveAvgPool2d(output_size=1)
                (1): Conv2d(64, 4, kernel_size=(1, 1), stride=(1, 1))
                (2): ReLU(inplace=True)
                (3): Conv2d(4, 64, kernel_size=(1, 1), stride=(1, 1))
                (4): Sigmoid()
              )
            )
          )
        )
        (18): RCAB(
          (rcab): Sequential(
            (0): Conv2d(64, 64, kernel_size=(3, 3), stride=(1, 1), padding=(1, 1))
            (1): ReLU(inplace=True)
            (2): Conv2d(64, 64, kernel_size=(3, 3), stride=(1, 1), padding=(1, 1))
            (3): ChannelAttention(
              (attention): Sequential(
                (0): AdaptiveAvgPool2d(output_size=1)
                (1): Conv2d(64, 4, kernel_size=(1, 1), stride=(1, 1))
                (2): ReLU(inplace=True)
                (3): Conv2d(4, 64, kernel_size=(1, 1), stride=(1, 1))
                (4): Sigmoid()
              )
            )
          )
        )
        (19): RCAB(
          (rcab): Sequential(
            (0): Conv2d(64, 64, kernel_size=(3, 3), stride=(1, 1), padding=(1, 1))
            (1): ReLU(inplace=True)
            (2): Conv2d(64, 64, kernel_size=(3, 3), stride=(1, 1), padding=(1, 1))
            (3): ChannelAttention(
              (attention): Sequential(
                (0): AdaptiveAvgPool2d(output_size=1)
                (1): Conv2d(64, 4, kernel_size=(1, 1), stride=(1, 1))
                (2): ReLU(inplace=True)
                (3): Conv2d(4, 64, kernel_size=(1, 1), stride=(1, 1))
                (4): Sigmoid()
              )
            )
          )
        )
      )
      (conv): Conv2d(64, 64, kernel_size=(3, 3), stride=(1, 1), padding=(1, 1))
    )
    (5): ResidualGroup(
      (residual_group): Sequential(
        (0): RCAB(
          (rcab): Sequential(
            (0): Conv2d(64, 64, kernel_size=(3, 3), stride=(1, 1), padding=(1, 1))
            (1): ReLU(inplace=True)
            (2): Conv2d(64, 64, kernel_size=(3, 3), stride=(1, 1), padding=(1, 1))
            (3): ChannelAttention(
              (attention): Sequential(
                (0): AdaptiveAvgPool2d(output_size=1)
                (1): Conv2d(64, 4, kernel_size=(1, 1), stride=(1, 1))
                (2): ReLU(inplace=True)
                (3): Conv2d(4, 64, kernel_size=(1, 1), stride=(1, 1))
                (4): Sigmoid()
              )
            )
          )
        )
        (1): RCAB(
          (rcab): Sequential(
            (0): Conv2d(64, 64, kernel_size=(3, 3), stride=(1, 1), padding=(1, 1))
            (1): ReLU(inplace=True)
            (2): Conv2d(64, 64, kernel_size=(3, 3), stride=(1, 1), padding=(1, 1))
            (3): ChannelAttention(
              (attention): Sequential(
                (0): AdaptiveAvgPool2d(output_size=1)
                (1): Conv2d(64, 4, kernel_size=(1, 1), stride=(1, 1))
                (2): ReLU(inplace=True)
                (3): Conv2d(4, 64, kernel_size=(1, 1), stride=(1, 1))
                (4): Sigmoid()
              )
            )
          )
        )
        (2): RCAB(
          (rcab): Sequential(
            (0): Conv2d(64, 64, kernel_size=(3, 3), stride=(1, 1), padding=(1, 1))
            (1): ReLU(inplace=True)
            (2): Conv2d(64, 64, kernel_size=(3, 3), stride=(1, 1), padding=(1, 1))
            (3): ChannelAttention(
              (attention): Sequential(
                (0): AdaptiveAvgPool2d(output_size=1)
                (1): Conv2d(64, 4, kernel_size=(1, 1), stride=(1, 1))
                (2): ReLU(inplace=True)
                (3): Conv2d(4, 64, kernel_size=(1, 1), stride=(1, 1))
                (4): Sigmoid()
              )
            )
          )
        )
        (3): RCAB(
          (rcab): Sequential(
            (0): Conv2d(64, 64, kernel_size=(3, 3), stride=(1, 1), padding=(1, 1))
            (1): ReLU(inplace=True)
            (2): Conv2d(64, 64, kernel_size=(3, 3), stride=(1, 1), padding=(1, 1))
            (3): ChannelAttention(
              (attention): Sequential(
                (0): AdaptiveAvgPool2d(output_size=1)
                (1): Conv2d(64, 4, kernel_size=(1, 1), stride=(1, 1))
                (2): ReLU(inplace=True)
                (3): Conv2d(4, 64, kernel_size=(1, 1), stride=(1, 1))
                (4): Sigmoid()
              )
            )
          )
        )
        (4): RCAB(
          (rcab): Sequential(
            (0): Conv2d(64, 64, kernel_size=(3, 3), stride=(1, 1), padding=(1, 1))
            (1): ReLU(inplace=True)
            (2): Conv2d(64, 64, kernel_size=(3, 3), stride=(1, 1), padding=(1, 1))
            (3): ChannelAttention(
              (attention): Sequential(
                (0): AdaptiveAvgPool2d(output_size=1)
                (1): Conv2d(64, 4, kernel_size=(1, 1), stride=(1, 1))
                (2): ReLU(inplace=True)
                (3): Conv2d(4, 64, kernel_size=(1, 1), stride=(1, 1))
                (4): Sigmoid()
              )
            )
          )
        )
        (5): RCAB(
          (rcab): Sequential(
            (0): Conv2d(64, 64, kernel_size=(3, 3), stride=(1, 1), padding=(1, 1))
            (1): ReLU(inplace=True)
            (2): Conv2d(64, 64, kernel_size=(3, 3), stride=(1, 1), padding=(1, 1))
            (3): ChannelAttention(
              (attention): Sequential(
                (0): AdaptiveAvgPool2d(output_size=1)
                (1): Conv2d(64, 4, kernel_size=(1, 1), stride=(1, 1))
                (2): ReLU(inplace=True)
                (3): Conv2d(4, 64, kernel_size=(1, 1), stride=(1, 1))
                (4): Sigmoid()
              )
            )
          )
        )
        (6): RCAB(
          (rcab): Sequential(
            (0): Conv2d(64, 64, kernel_size=(3, 3), stride=(1, 1), padding=(1, 1))
            (1): ReLU(inplace=True)
            (2): Conv2d(64, 64, kernel_size=(3, 3), stride=(1, 1), padding=(1, 1))
            (3): ChannelAttention(
              (attention): Sequential(
                (0): AdaptiveAvgPool2d(output_size=1)
                (1): Conv2d(64, 4, kernel_size=(1, 1), stride=(1, 1))
                (2): ReLU(inplace=True)
                (3): Conv2d(4, 64, kernel_size=(1, 1), stride=(1, 1))
                (4): Sigmoid()
              )
            )
          )
        )
        (7): RCAB(
          (rcab): Sequential(
            (0): Conv2d(64, 64, kernel_size=(3, 3), stride=(1, 1), padding=(1, 1))
            (1): ReLU(inplace=True)
            (2): Conv2d(64, 64, kernel_size=(3, 3), stride=(1, 1), padding=(1, 1))
            (3): ChannelAttention(
              (attention): Sequential(
                (0): AdaptiveAvgPool2d(output_size=1)
                (1): Conv2d(64, 4, kernel_size=(1, 1), stride=(1, 1))
                (2): ReLU(inplace=True)
                (3): Conv2d(4, 64, kernel_size=(1, 1), stride=(1, 1))
                (4): Sigmoid()
              )
            )
          )
        )
        (8): RCAB(
          (rcab): Sequential(
            (0): Conv2d(64, 64, kernel_size=(3, 3), stride=(1, 1), padding=(1, 1))
            (1): ReLU(inplace=True)
            (2): Conv2d(64, 64, kernel_size=(3, 3), stride=(1, 1), padding=(1, 1))
            (3): ChannelAttention(
              (attention): Sequential(
                (0): AdaptiveAvgPool2d(output_size=1)
                (1): Conv2d(64, 4, kernel_size=(1, 1), stride=(1, 1))
                (2): ReLU(inplace=True)
                (3): Conv2d(4, 64, kernel_size=(1, 1), stride=(1, 1))
                (4): Sigmoid()
              )
            )
          )
        )
        (9): RCAB(
          (rcab): Sequential(
            (0): Conv2d(64, 64, kernel_size=(3, 3), stride=(1, 1), padding=(1, 1))
            (1): ReLU(inplace=True)
            (2): Conv2d(64, 64, kernel_size=(3, 3), stride=(1, 1), padding=(1, 1))
            (3): ChannelAttention(
              (attention): Sequential(
                (0): AdaptiveAvgPool2d(output_size=1)
                (1): Conv2d(64, 4, kernel_size=(1, 1), stride=(1, 1))
                (2): ReLU(inplace=True)
                (3): Conv2d(4, 64, kernel_size=(1, 1), stride=(1, 1))
                (4): Sigmoid()
              )
            )
          )
        )
        (10): RCAB(
          (rcab): Sequential(
            (0): Conv2d(64, 64, kernel_size=(3, 3), stride=(1, 1), padding=(1, 1))
            (1): ReLU(inplace=True)
            (2): Conv2d(64, 64, kernel_size=(3, 3), stride=(1, 1), padding=(1, 1))
            (3): ChannelAttention(
              (attention): Sequential(
                (0): AdaptiveAvgPool2d(output_size=1)
                (1): Conv2d(64, 4, kernel_size=(1, 1), stride=(1, 1))
                (2): ReLU(inplace=True)
                (3): Conv2d(4, 64, kernel_size=(1, 1), stride=(1, 1))
                (4): Sigmoid()
              )
            )
          )
        )
        (11): RCAB(
          (rcab): Sequential(
            (0): Conv2d(64, 64, kernel_size=(3, 3), stride=(1, 1), padding=(1, 1))
            (1): ReLU(inplace=True)
            (2): Conv2d(64, 64, kernel_size=(3, 3), stride=(1, 1), padding=(1, 1))
            (3): ChannelAttention(
              (attention): Sequential(
                (0): AdaptiveAvgPool2d(output_size=1)
                (1): Conv2d(64, 4, kernel_size=(1, 1), stride=(1, 1))
                (2): ReLU(inplace=True)
                (3): Conv2d(4, 64, kernel_size=(1, 1), stride=(1, 1))
                (4): Sigmoid()
              )
            )
          )
        )
        (12): RCAB(
          (rcab): Sequential(
            (0): Conv2d(64, 64, kernel_size=(3, 3), stride=(1, 1), padding=(1, 1))
            (1): ReLU(inplace=True)
            (2): Conv2d(64, 64, kernel_size=(3, 3), stride=(1, 1), padding=(1, 1))
            (3): ChannelAttention(
              (attention): Sequential(
                (0): AdaptiveAvgPool2d(output_size=1)
                (1): Conv2d(64, 4, kernel_size=(1, 1), stride=(1, 1))
                (2): ReLU(inplace=True)
                (3): Conv2d(4, 64, kernel_size=(1, 1), stride=(1, 1))
                (4): Sigmoid()
              )
            )
          )
        )
        (13): RCAB(
          (rcab): Sequential(
            (0): Conv2d(64, 64, kernel_size=(3, 3), stride=(1, 1), padding=(1, 1))
            (1): ReLU(inplace=True)
            (2): Conv2d(64, 64, kernel_size=(3, 3), stride=(1, 1), padding=(1, 1))
            (3): ChannelAttention(
              (attention): Sequential(
                (0): AdaptiveAvgPool2d(output_size=1)
                (1): Conv2d(64, 4, kernel_size=(1, 1), stride=(1, 1))
                (2): ReLU(inplace=True)
                (3): Conv2d(4, 64, kernel_size=(1, 1), stride=(1, 1))
                (4): Sigmoid()
              )
            )
          )
        )
        (14): RCAB(
          (rcab): Sequential(
            (0): Conv2d(64, 64, kernel_size=(3, 3), stride=(1, 1), padding=(1, 1))
            (1): ReLU(inplace=True)
            (2): Conv2d(64, 64, kernel_size=(3, 3), stride=(1, 1), padding=(1, 1))
            (3): ChannelAttention(
              (attention): Sequential(
                (0): AdaptiveAvgPool2d(output_size=1)
                (1): Conv2d(64, 4, kernel_size=(1, 1), stride=(1, 1))
                (2): ReLU(inplace=True)
                (3): Conv2d(4, 64, kernel_size=(1, 1), stride=(1, 1))
                (4): Sigmoid()
              )
            )
          )
        )
        (15): RCAB(
          (rcab): Sequential(
            (0): Conv2d(64, 64, kernel_size=(3, 3), stride=(1, 1), padding=(1, 1))
            (1): ReLU(inplace=True)
            (2): Conv2d(64, 64, kernel_size=(3, 3), stride=(1, 1), padding=(1, 1))
            (3): ChannelAttention(
              (attention): Sequential(
                (0): AdaptiveAvgPool2d(output_size=1)
                (1): Conv2d(64, 4, kernel_size=(1, 1), stride=(1, 1))
                (2): ReLU(inplace=True)
                (3): Conv2d(4, 64, kernel_size=(1, 1), stride=(1, 1))
                (4): Sigmoid()
              )
            )
          )
        )
        (16): RCAB(
          (rcab): Sequential(
            (0): Conv2d(64, 64, kernel_size=(3, 3), stride=(1, 1), padding=(1, 1))
            (1): ReLU(inplace=True)
            (2): Conv2d(64, 64, kernel_size=(3, 3), stride=(1, 1), padding=(1, 1))
            (3): ChannelAttention(
              (attention): Sequential(
                (0): AdaptiveAvgPool2d(output_size=1)
                (1): Conv2d(64, 4, kernel_size=(1, 1), stride=(1, 1))
                (2): ReLU(inplace=True)
                (3): Conv2d(4, 64, kernel_size=(1, 1), stride=(1, 1))
                (4): Sigmoid()
              )
            )
          )
        )
        (17): RCAB(
          (rcab): Sequential(
            (0): Conv2d(64, 64, kernel_size=(3, 3), stride=(1, 1), padding=(1, 1))
            (1): ReLU(inplace=True)
            (2): Conv2d(64, 64, kernel_size=(3, 3), stride=(1, 1), padding=(1, 1))
            (3): ChannelAttention(
              (attention): Sequential(
                (0): AdaptiveAvgPool2d(output_size=1)
                (1): Conv2d(64, 4, kernel_size=(1, 1), stride=(1, 1))
                (2): ReLU(inplace=True)
                (3): Conv2d(4, 64, kernel_size=(1, 1), stride=(1, 1))
                (4): Sigmoid()
              )
            )
          )
        )
        (18): RCAB(
          (rcab): Sequential(
            (0): Conv2d(64, 64, kernel_size=(3, 3), stride=(1, 1), padding=(1, 1))
            (1): ReLU(inplace=True)
            (2): Conv2d(64, 64, kernel_size=(3, 3), stride=(1, 1), padding=(1, 1))
            (3): ChannelAttention(
              (attention): Sequential(
                (0): AdaptiveAvgPool2d(output_size=1)
                (1): Conv2d(64, 4, kernel_size=(1, 1), stride=(1, 1))
                (2): ReLU(inplace=True)
                (3): Conv2d(4, 64, kernel_size=(1, 1), stride=(1, 1))
                (4): Sigmoid()
              )
            )
          )
        )
        (19): RCAB(
          (rcab): Sequential(
            (0): Conv2d(64, 64, kernel_size=(3, 3), stride=(1, 1), padding=(1, 1))
            (1): ReLU(inplace=True)
            (2): Conv2d(64, 64, kernel_size=(3, 3), stride=(1, 1), padding=(1, 1))
            (3): ChannelAttention(
              (attention): Sequential(
                (0): AdaptiveAvgPool2d(output_size=1)
                (1): Conv2d(64, 4, kernel_size=(1, 1), stride=(1, 1))
                (2): ReLU(inplace=True)
                (3): Conv2d(4, 64, kernel_size=(1, 1), stride=(1, 1))
                (4): Sigmoid()
              )
            )
          )
        )
      )
      (conv): Conv2d(64, 64, kernel_size=(3, 3), stride=(1, 1), padding=(1, 1))
    )
    (6): ResidualGroup(
      (residual_group): Sequential(
        (0): RCAB(
          (rcab): Sequential(
            (0): Conv2d(64, 64, kernel_size=(3, 3), stride=(1, 1), padding=(1, 1))
            (1): ReLU(inplace=True)
            (2): Conv2d(64, 64, kernel_size=(3, 3), stride=(1, 1), padding=(1, 1))
            (3): ChannelAttention(
              (attention): Sequential(
                (0): AdaptiveAvgPool2d(output_size=1)
                (1): Conv2d(64, 4, kernel_size=(1, 1), stride=(1, 1))
                (2): ReLU(inplace=True)
                (3): Conv2d(4, 64, kernel_size=(1, 1), stride=(1, 1))
                (4): Sigmoid()
              )
            )
          )
        )
        (1): RCAB(
          (rcab): Sequential(
            (0): Conv2d(64, 64, kernel_size=(3, 3), stride=(1, 1), padding=(1, 1))
            (1): ReLU(inplace=True)
            (2): Conv2d(64, 64, kernel_size=(3, 3), stride=(1, 1), padding=(1, 1))
            (3): ChannelAttention(
              (attention): Sequential(
                (0): AdaptiveAvgPool2d(output_size=1)
                (1): Conv2d(64, 4, kernel_size=(1, 1), stride=(1, 1))
                (2): ReLU(inplace=True)
                (3): Conv2d(4, 64, kernel_size=(1, 1), stride=(1, 1))
                (4): Sigmoid()
              )
            )
          )
        )
        (2): RCAB(
          (rcab): Sequential(
            (0): Conv2d(64, 64, kernel_size=(3, 3), stride=(1, 1), padding=(1, 1))
            (1): ReLU(inplace=True)
            (2): Conv2d(64, 64, kernel_size=(3, 3), stride=(1, 1), padding=(1, 1))
            (3): ChannelAttention(
              (attention): Sequential(
                (0): AdaptiveAvgPool2d(output_size=1)
                (1): Conv2d(64, 4, kernel_size=(1, 1), stride=(1, 1))
                (2): ReLU(inplace=True)
                (3): Conv2d(4, 64, kernel_size=(1, 1), stride=(1, 1))
                (4): Sigmoid()
              )
            )
          )
        )
        (3): RCAB(
          (rcab): Sequential(
            (0): Conv2d(64, 64, kernel_size=(3, 3), stride=(1, 1), padding=(1, 1))
            (1): ReLU(inplace=True)
            (2): Conv2d(64, 64, kernel_size=(3, 3), stride=(1, 1), padding=(1, 1))
            (3): ChannelAttention(
              (attention): Sequential(
                (0): AdaptiveAvgPool2d(output_size=1)
                (1): Conv2d(64, 4, kernel_size=(1, 1), stride=(1, 1))
                (2): ReLU(inplace=True)
                (3): Conv2d(4, 64, kernel_size=(1, 1), stride=(1, 1))
                (4): Sigmoid()
              )
            )
          )
        )
        (4): RCAB(
          (rcab): Sequential(
            (0): Conv2d(64, 64, kernel_size=(3, 3), stride=(1, 1), padding=(1, 1))
            (1): ReLU(inplace=True)
            (2): Conv2d(64, 64, kernel_size=(3, 3), stride=(1, 1), padding=(1, 1))
            (3): ChannelAttention(
              (attention): Sequential(
                (0): AdaptiveAvgPool2d(output_size=1)
                (1): Conv2d(64, 4, kernel_size=(1, 1), stride=(1, 1))
                (2): ReLU(inplace=True)
                (3): Conv2d(4, 64, kernel_size=(1, 1), stride=(1, 1))
                (4): Sigmoid()
              )
            )
          )
        )
        (5): RCAB(
          (rcab): Sequential(
            (0): Conv2d(64, 64, kernel_size=(3, 3), stride=(1, 1), padding=(1, 1))
            (1): ReLU(inplace=True)
            (2): Conv2d(64, 64, kernel_size=(3, 3), stride=(1, 1), padding=(1, 1))
            (3): ChannelAttention(
              (attention): Sequential(
                (0): AdaptiveAvgPool2d(output_size=1)
                (1): Conv2d(64, 4, kernel_size=(1, 1), stride=(1, 1))
                (2): ReLU(inplace=True)
                (3): Conv2d(4, 64, kernel_size=(1, 1), stride=(1, 1))
                (4): Sigmoid()
              )
            )
          )
        )
        (6): RCAB(
          (rcab): Sequential(
            (0): Conv2d(64, 64, kernel_size=(3, 3), stride=(1, 1), padding=(1, 1))
            (1): ReLU(inplace=True)
            (2): Conv2d(64, 64, kernel_size=(3, 3), stride=(1, 1), padding=(1, 1))
            (3): ChannelAttention(
              (attention): Sequential(
                (0): AdaptiveAvgPool2d(output_size=1)
                (1): Conv2d(64, 4, kernel_size=(1, 1), stride=(1, 1))
                (2): ReLU(inplace=True)
                (3): Conv2d(4, 64, kernel_size=(1, 1), stride=(1, 1))
                (4): Sigmoid()
              )
            )
          )
        )
        (7): RCAB(
          (rcab): Sequential(
            (0): Conv2d(64, 64, kernel_size=(3, 3), stride=(1, 1), padding=(1, 1))
            (1): ReLU(inplace=True)
            (2): Conv2d(64, 64, kernel_size=(3, 3), stride=(1, 1), padding=(1, 1))
            (3): ChannelAttention(
              (attention): Sequential(
                (0): AdaptiveAvgPool2d(output_size=1)
                (1): Conv2d(64, 4, kernel_size=(1, 1), stride=(1, 1))
                (2): ReLU(inplace=True)
                (3): Conv2d(4, 64, kernel_size=(1, 1), stride=(1, 1))
                (4): Sigmoid()
              )
            )
          )
        )
        (8): RCAB(
          (rcab): Sequential(
            (0): Conv2d(64, 64, kernel_size=(3, 3), stride=(1, 1), padding=(1, 1))
            (1): ReLU(inplace=True)
            (2): Conv2d(64, 64, kernel_size=(3, 3), stride=(1, 1), padding=(1, 1))
            (3): ChannelAttention(
              (attention): Sequential(
                (0): AdaptiveAvgPool2d(output_size=1)
                (1): Conv2d(64, 4, kernel_size=(1, 1), stride=(1, 1))
                (2): ReLU(inplace=True)
                (3): Conv2d(4, 64, kernel_size=(1, 1), stride=(1, 1))
                (4): Sigmoid()
              )
            )
          )
        )
        (9): RCAB(
          (rcab): Sequential(
            (0): Conv2d(64, 64, kernel_size=(3, 3), stride=(1, 1), padding=(1, 1))
            (1): ReLU(inplace=True)
            (2): Conv2d(64, 64, kernel_size=(3, 3), stride=(1, 1), padding=(1, 1))
            (3): ChannelAttention(
              (attention): Sequential(
                (0): AdaptiveAvgPool2d(output_size=1)
                (1): Conv2d(64, 4, kernel_size=(1, 1), stride=(1, 1))
                (2): ReLU(inplace=True)
                (3): Conv2d(4, 64, kernel_size=(1, 1), stride=(1, 1))
                (4): Sigmoid()
              )
            )
          )
        )
        (10): RCAB(
          (rcab): Sequential(
            (0): Conv2d(64, 64, kernel_size=(3, 3), stride=(1, 1), padding=(1, 1))
            (1): ReLU(inplace=True)
            (2): Conv2d(64, 64, kernel_size=(3, 3), stride=(1, 1), padding=(1, 1))
            (3): ChannelAttention(
              (attention): Sequential(
                (0): AdaptiveAvgPool2d(output_size=1)
                (1): Conv2d(64, 4, kernel_size=(1, 1), stride=(1, 1))
                (2): ReLU(inplace=True)
                (3): Conv2d(4, 64, kernel_size=(1, 1), stride=(1, 1))
                (4): Sigmoid()
              )
            )
          )
        )
        (11): RCAB(
          (rcab): Sequential(
            (0): Conv2d(64, 64, kernel_size=(3, 3), stride=(1, 1), padding=(1, 1))
            (1): ReLU(inplace=True)
            (2): Conv2d(64, 64, kernel_size=(3, 3), stride=(1, 1), padding=(1, 1))
            (3): ChannelAttention(
              (attention): Sequential(
                (0): AdaptiveAvgPool2d(output_size=1)
                (1): Conv2d(64, 4, kernel_size=(1, 1), stride=(1, 1))
                (2): ReLU(inplace=True)
                (3): Conv2d(4, 64, kernel_size=(1, 1), stride=(1, 1))
                (4): Sigmoid()
              )
            )
          )
        )
        (12): RCAB(
          (rcab): Sequential(
            (0): Conv2d(64, 64, kernel_size=(3, 3), stride=(1, 1), padding=(1, 1))
            (1): ReLU(inplace=True)
            (2): Conv2d(64, 64, kernel_size=(3, 3), stride=(1, 1), padding=(1, 1))
            (3): ChannelAttention(
              (attention): Sequential(
                (0): AdaptiveAvgPool2d(output_size=1)
                (1): Conv2d(64, 4, kernel_size=(1, 1), stride=(1, 1))
                (2): ReLU(inplace=True)
                (3): Conv2d(4, 64, kernel_size=(1, 1), stride=(1, 1))
                (4): Sigmoid()
              )
            )
          )
        )
        (13): RCAB(
          (rcab): Sequential(
            (0): Conv2d(64, 64, kernel_size=(3, 3), stride=(1, 1), padding=(1, 1))
            (1): ReLU(inplace=True)
            (2): Conv2d(64, 64, kernel_size=(3, 3), stride=(1, 1), padding=(1, 1))
            (3): ChannelAttention(
              (attention): Sequential(
                (0): AdaptiveAvgPool2d(output_size=1)
                (1): Conv2d(64, 4, kernel_size=(1, 1), stride=(1, 1))
                (2): ReLU(inplace=True)
                (3): Conv2d(4, 64, kernel_size=(1, 1), stride=(1, 1))
                (4): Sigmoid()
              )
            )
          )
        )
        (14): RCAB(
          (rcab): Sequential(
            (0): Conv2d(64, 64, kernel_size=(3, 3), stride=(1, 1), padding=(1, 1))
            (1): ReLU(inplace=True)
            (2): Conv2d(64, 64, kernel_size=(3, 3), stride=(1, 1), padding=(1, 1))
            (3): ChannelAttention(
              (attention): Sequential(
                (0): AdaptiveAvgPool2d(output_size=1)
                (1): Conv2d(64, 4, kernel_size=(1, 1), stride=(1, 1))
                (2): ReLU(inplace=True)
                (3): Conv2d(4, 64, kernel_size=(1, 1), stride=(1, 1))
                (4): Sigmoid()
              )
            )
          )
        )
        (15): RCAB(
          (rcab): Sequential(
            (0): Conv2d(64, 64, kernel_size=(3, 3), stride=(1, 1), padding=(1, 1))
            (1): ReLU(inplace=True)
            (2): Conv2d(64, 64, kernel_size=(3, 3), stride=(1, 1), padding=(1, 1))
            (3): ChannelAttention(
              (attention): Sequential(
                (0): AdaptiveAvgPool2d(output_size=1)
                (1): Conv2d(64, 4, kernel_size=(1, 1), stride=(1, 1))
                (2): ReLU(inplace=True)
                (3): Conv2d(4, 64, kernel_size=(1, 1), stride=(1, 1))
                (4): Sigmoid()
              )
            )
          )
        )
        (16): RCAB(
          (rcab): Sequential(
            (0): Conv2d(64, 64, kernel_size=(3, 3), stride=(1, 1), padding=(1, 1))
            (1): ReLU(inplace=True)
            (2): Conv2d(64, 64, kernel_size=(3, 3), stride=(1, 1), padding=(1, 1))
            (3): ChannelAttention(
              (attention): Sequential(
                (0): AdaptiveAvgPool2d(output_size=1)
                (1): Conv2d(64, 4, kernel_size=(1, 1), stride=(1, 1))
                (2): ReLU(inplace=True)
                (3): Conv2d(4, 64, kernel_size=(1, 1), stride=(1, 1))
                (4): Sigmoid()
              )
            )
          )
        )
        (17): RCAB(
          (rcab): Sequential(
            (0): Conv2d(64, 64, kernel_size=(3, 3), stride=(1, 1), padding=(1, 1))
            (1): ReLU(inplace=True)
            (2): Conv2d(64, 64, kernel_size=(3, 3), stride=(1, 1), padding=(1, 1))
            (3): ChannelAttention(
              (attention): Sequential(
                (0): AdaptiveAvgPool2d(output_size=1)
                (1): Conv2d(64, 4, kernel_size=(1, 1), stride=(1, 1))
                (2): ReLU(inplace=True)
                (3): Conv2d(4, 64, kernel_size=(1, 1), stride=(1, 1))
                (4): Sigmoid()
              )
            )
          )
        )
        (18): RCAB(
          (rcab): Sequential(
            (0): Conv2d(64, 64, kernel_size=(3, 3), stride=(1, 1), padding=(1, 1))
            (1): ReLU(inplace=True)
            (2): Conv2d(64, 64, kernel_size=(3, 3), stride=(1, 1), padding=(1, 1))
            (3): ChannelAttention(
              (attention): Sequential(
                (0): AdaptiveAvgPool2d(output_size=1)
                (1): Conv2d(64, 4, kernel_size=(1, 1), stride=(1, 1))
                (2): ReLU(inplace=True)
                (3): Conv2d(4, 64, kernel_size=(1, 1), stride=(1, 1))
                (4): Sigmoid()
              )
            )
          )
        )
        (19): RCAB(
          (rcab): Sequential(
            (0): Conv2d(64, 64, kernel_size=(3, 3), stride=(1, 1), padding=(1, 1))
            (1): ReLU(inplace=True)
            (2): Conv2d(64, 64, kernel_size=(3, 3), stride=(1, 1), padding=(1, 1))
            (3): ChannelAttention(
              (attention): Sequential(
                (0): AdaptiveAvgPool2d(output_size=1)
                (1): Conv2d(64, 4, kernel_size=(1, 1), stride=(1, 1))
                (2): ReLU(inplace=True)
                (3): Conv2d(4, 64, kernel_size=(1, 1), stride=(1, 1))
                (4): Sigmoid()
              )
            )
          )
        )
      )
      (conv): Conv2d(64, 64, kernel_size=(3, 3), stride=(1, 1), padding=(1, 1))
    )
    (7): ResidualGroup(
      (residual_group): Sequential(
        (0): RCAB(
          (rcab): Sequential(
            (0): Conv2d(64, 64, kernel_size=(3, 3), stride=(1, 1), padding=(1, 1))
            (1): ReLU(inplace=True)
            (2): Conv2d(64, 64, kernel_size=(3, 3), stride=(1, 1), padding=(1, 1))
            (3): ChannelAttention(
              (attention): Sequential(
                (0): AdaptiveAvgPool2d(output_size=1)
                (1): Conv2d(64, 4, kernel_size=(1, 1), stride=(1, 1))
                (2): ReLU(inplace=True)
                (3): Conv2d(4, 64, kernel_size=(1, 1), stride=(1, 1))
                (4): Sigmoid()
              )
            )
          )
        )
        (1): RCAB(
          (rcab): Sequential(
            (0): Conv2d(64, 64, kernel_size=(3, 3), stride=(1, 1), padding=(1, 1))
            (1): ReLU(inplace=True)
            (2): Conv2d(64, 64, kernel_size=(3, 3), stride=(1, 1), padding=(1, 1))
            (3): ChannelAttention(
              (attention): Sequential(
                (0): AdaptiveAvgPool2d(output_size=1)
                (1): Conv2d(64, 4, kernel_size=(1, 1), stride=(1, 1))
                (2): ReLU(inplace=True)
                (3): Conv2d(4, 64, kernel_size=(1, 1), stride=(1, 1))
                (4): Sigmoid()
              )
            )
          )
        )
        (2): RCAB(
          (rcab): Sequential(
            (0): Conv2d(64, 64, kernel_size=(3, 3), stride=(1, 1), padding=(1, 1))
            (1): ReLU(inplace=True)
            (2): Conv2d(64, 64, kernel_size=(3, 3), stride=(1, 1), padding=(1, 1))
            (3): ChannelAttention(
              (attention): Sequential(
                (0): AdaptiveAvgPool2d(output_size=1)
                (1): Conv2d(64, 4, kernel_size=(1, 1), stride=(1, 1))
                (2): ReLU(inplace=True)
                (3): Conv2d(4, 64, kernel_size=(1, 1), stride=(1, 1))
                (4): Sigmoid()
              )
            )
          )
        )
        (3): RCAB(
          (rcab): Sequential(
            (0): Conv2d(64, 64, kernel_size=(3, 3), stride=(1, 1), padding=(1, 1))
            (1): ReLU(inplace=True)
            (2): Conv2d(64, 64, kernel_size=(3, 3), stride=(1, 1), padding=(1, 1))
            (3): ChannelAttention(
              (attention): Sequential(
                (0): AdaptiveAvgPool2d(output_size=1)
                (1): Conv2d(64, 4, kernel_size=(1, 1), stride=(1, 1))
                (2): ReLU(inplace=True)
                (3): Conv2d(4, 64, kernel_size=(1, 1), stride=(1, 1))
                (4): Sigmoid()
              )
            )
          )
        )
        (4): RCAB(
          (rcab): Sequential(
            (0): Conv2d(64, 64, kernel_size=(3, 3), stride=(1, 1), padding=(1, 1))
            (1): ReLU(inplace=True)
            (2): Conv2d(64, 64, kernel_size=(3, 3), stride=(1, 1), padding=(1, 1))
            (3): ChannelAttention(
              (attention): Sequential(
                (0): AdaptiveAvgPool2d(output_size=1)
                (1): Conv2d(64, 4, kernel_size=(1, 1), stride=(1, 1))
                (2): ReLU(inplace=True)
                (3): Conv2d(4, 64, kernel_size=(1, 1), stride=(1, 1))
                (4): Sigmoid()
              )
            )
          )
        )
        (5): RCAB(
          (rcab): Sequential(
            (0): Conv2d(64, 64, kernel_size=(3, 3), stride=(1, 1), padding=(1, 1))
            (1): ReLU(inplace=True)
            (2): Conv2d(64, 64, kernel_size=(3, 3), stride=(1, 1), padding=(1, 1))
            (3): ChannelAttention(
              (attention): Sequential(
                (0): AdaptiveAvgPool2d(output_size=1)
                (1): Conv2d(64, 4, kernel_size=(1, 1), stride=(1, 1))
                (2): ReLU(inplace=True)
                (3): Conv2d(4, 64, kernel_size=(1, 1), stride=(1, 1))
                (4): Sigmoid()
              )
            )
          )
        )
        (6): RCAB(
          (rcab): Sequential(
            (0): Conv2d(64, 64, kernel_size=(3, 3), stride=(1, 1), padding=(1, 1))
            (1): ReLU(inplace=True)
            (2): Conv2d(64, 64, kernel_size=(3, 3), stride=(1, 1), padding=(1, 1))
            (3): ChannelAttention(
              (attention): Sequential(
                (0): AdaptiveAvgPool2d(output_size=1)
                (1): Conv2d(64, 4, kernel_size=(1, 1), stride=(1, 1))
                (2): ReLU(inplace=True)
                (3): Conv2d(4, 64, kernel_size=(1, 1), stride=(1, 1))
                (4): Sigmoid()
              )
            )
          )
        )
        (7): RCAB(
          (rcab): Sequential(
            (0): Conv2d(64, 64, kernel_size=(3, 3), stride=(1, 1), padding=(1, 1))
            (1): ReLU(inplace=True)
            (2): Conv2d(64, 64, kernel_size=(3, 3), stride=(1, 1), padding=(1, 1))
            (3): ChannelAttention(
              (attention): Sequential(
                (0): AdaptiveAvgPool2d(output_size=1)
                (1): Conv2d(64, 4, kernel_size=(1, 1), stride=(1, 1))
                (2): ReLU(inplace=True)
                (3): Conv2d(4, 64, kernel_size=(1, 1), stride=(1, 1))
                (4): Sigmoid()
              )
            )
          )
        )
        (8): RCAB(
          (rcab): Sequential(
            (0): Conv2d(64, 64, kernel_size=(3, 3), stride=(1, 1), padding=(1, 1))
            (1): ReLU(inplace=True)
            (2): Conv2d(64, 64, kernel_size=(3, 3), stride=(1, 1), padding=(1, 1))
            (3): ChannelAttention(
              (attention): Sequential(
                (0): AdaptiveAvgPool2d(output_size=1)
                (1): Conv2d(64, 4, kernel_size=(1, 1), stride=(1, 1))
                (2): ReLU(inplace=True)
                (3): Conv2d(4, 64, kernel_size=(1, 1), stride=(1, 1))
                (4): Sigmoid()
              )
            )
          )
        )
        (9): RCAB(
          (rcab): Sequential(
            (0): Conv2d(64, 64, kernel_size=(3, 3), stride=(1, 1), padding=(1, 1))
            (1): ReLU(inplace=True)
            (2): Conv2d(64, 64, kernel_size=(3, 3), stride=(1, 1), padding=(1, 1))
            (3): ChannelAttention(
              (attention): Sequential(
                (0): AdaptiveAvgPool2d(output_size=1)
                (1): Conv2d(64, 4, kernel_size=(1, 1), stride=(1, 1))
                (2): ReLU(inplace=True)
                (3): Conv2d(4, 64, kernel_size=(1, 1), stride=(1, 1))
                (4): Sigmoid()
              )
            )
          )
        )
        (10): RCAB(
          (rcab): Sequential(
            (0): Conv2d(64, 64, kernel_size=(3, 3), stride=(1, 1), padding=(1, 1))
            (1): ReLU(inplace=True)
            (2): Conv2d(64, 64, kernel_size=(3, 3), stride=(1, 1), padding=(1, 1))
            (3): ChannelAttention(
              (attention): Sequential(
                (0): AdaptiveAvgPool2d(output_size=1)
                (1): Conv2d(64, 4, kernel_size=(1, 1), stride=(1, 1))
                (2): ReLU(inplace=True)
                (3): Conv2d(4, 64, kernel_size=(1, 1), stride=(1, 1))
                (4): Sigmoid()
              )
            )
          )
        )
        (11): RCAB(
          (rcab): Sequential(
            (0): Conv2d(64, 64, kernel_size=(3, 3), stride=(1, 1), padding=(1, 1))
            (1): ReLU(inplace=True)
            (2): Conv2d(64, 64, kernel_size=(3, 3), stride=(1, 1), padding=(1, 1))
            (3): ChannelAttention(
              (attention): Sequential(
                (0): AdaptiveAvgPool2d(output_size=1)
                (1): Conv2d(64, 4, kernel_size=(1, 1), stride=(1, 1))
                (2): ReLU(inplace=True)
                (3): Conv2d(4, 64, kernel_size=(1, 1), stride=(1, 1))
                (4): Sigmoid()
              )
            )
          )
        )
        (12): RCAB(
          (rcab): Sequential(
            (0): Conv2d(64, 64, kernel_size=(3, 3), stride=(1, 1), padding=(1, 1))
            (1): ReLU(inplace=True)
            (2): Conv2d(64, 64, kernel_size=(3, 3), stride=(1, 1), padding=(1, 1))
            (3): ChannelAttention(
              (attention): Sequential(
                (0): AdaptiveAvgPool2d(output_size=1)
                (1): Conv2d(64, 4, kernel_size=(1, 1), stride=(1, 1))
                (2): ReLU(inplace=True)
                (3): Conv2d(4, 64, kernel_size=(1, 1), stride=(1, 1))
                (4): Sigmoid()
              )
            )
          )
        )
        (13): RCAB(
          (rcab): Sequential(
            (0): Conv2d(64, 64, kernel_size=(3, 3), stride=(1, 1), padding=(1, 1))
            (1): ReLU(inplace=True)
            (2): Conv2d(64, 64, kernel_size=(3, 3), stride=(1, 1), padding=(1, 1))
            (3): ChannelAttention(
              (attention): Sequential(
                (0): AdaptiveAvgPool2d(output_size=1)
                (1): Conv2d(64, 4, kernel_size=(1, 1), stride=(1, 1))
                (2): ReLU(inplace=True)
                (3): Conv2d(4, 64, kernel_size=(1, 1), stride=(1, 1))
                (4): Sigmoid()
              )
            )
          )
        )
        (14): RCAB(
          (rcab): Sequential(
            (0): Conv2d(64, 64, kernel_size=(3, 3), stride=(1, 1), padding=(1, 1))
            (1): ReLU(inplace=True)
            (2): Conv2d(64, 64, kernel_size=(3, 3), stride=(1, 1), padding=(1, 1))
            (3): ChannelAttention(
              (attention): Sequential(
                (0): AdaptiveAvgPool2d(output_size=1)
                (1): Conv2d(64, 4, kernel_size=(1, 1), stride=(1, 1))
                (2): ReLU(inplace=True)
                (3): Conv2d(4, 64, kernel_size=(1, 1), stride=(1, 1))
                (4): Sigmoid()
              )
            )
          )
        )
        (15): RCAB(
          (rcab): Sequential(
            (0): Conv2d(64, 64, kernel_size=(3, 3), stride=(1, 1), padding=(1, 1))
            (1): ReLU(inplace=True)
            (2): Conv2d(64, 64, kernel_size=(3, 3), stride=(1, 1), padding=(1, 1))
            (3): ChannelAttention(
              (attention): Sequential(
                (0): AdaptiveAvgPool2d(output_size=1)
                (1): Conv2d(64, 4, kernel_size=(1, 1), stride=(1, 1))
                (2): ReLU(inplace=True)
                (3): Conv2d(4, 64, kernel_size=(1, 1), stride=(1, 1))
                (4): Sigmoid()
              )
            )
          )
        )
        (16): RCAB(
          (rcab): Sequential(
            (0): Conv2d(64, 64, kernel_size=(3, 3), stride=(1, 1), padding=(1, 1))
            (1): ReLU(inplace=True)
            (2): Conv2d(64, 64, kernel_size=(3, 3), stride=(1, 1), padding=(1, 1))
            (3): ChannelAttention(
              (attention): Sequential(
                (0): AdaptiveAvgPool2d(output_size=1)
                (1): Conv2d(64, 4, kernel_size=(1, 1), stride=(1, 1))
                (2): ReLU(inplace=True)
                (3): Conv2d(4, 64, kernel_size=(1, 1), stride=(1, 1))
                (4): Sigmoid()
              )
            )
          )
        )
        (17): RCAB(
          (rcab): Sequential(
            (0): Conv2d(64, 64, kernel_size=(3, 3), stride=(1, 1), padding=(1, 1))
            (1): ReLU(inplace=True)
            (2): Conv2d(64, 64, kernel_size=(3, 3), stride=(1, 1), padding=(1, 1))
            (3): ChannelAttention(
              (attention): Sequential(
                (0): AdaptiveAvgPool2d(output_size=1)
                (1): Conv2d(64, 4, kernel_size=(1, 1), stride=(1, 1))
                (2): ReLU(inplace=True)
                (3): Conv2d(4, 64, kernel_size=(1, 1), stride=(1, 1))
                (4): Sigmoid()
              )
            )
          )
        )
        (18): RCAB(
          (rcab): Sequential(
            (0): Conv2d(64, 64, kernel_size=(3, 3), stride=(1, 1), padding=(1, 1))
            (1): ReLU(inplace=True)
            (2): Conv2d(64, 64, kernel_size=(3, 3), stride=(1, 1), padding=(1, 1))
            (3): ChannelAttention(
              (attention): Sequential(
                (0): AdaptiveAvgPool2d(output_size=1)
                (1): Conv2d(64, 4, kernel_size=(1, 1), stride=(1, 1))
                (2): ReLU(inplace=True)
                (3): Conv2d(4, 64, kernel_size=(1, 1), stride=(1, 1))
                (4): Sigmoid()
              )
            )
          )
        )
        (19): RCAB(
          (rcab): Sequential(
            (0): Conv2d(64, 64, kernel_size=(3, 3), stride=(1, 1), padding=(1, 1))
            (1): ReLU(inplace=True)
            (2): Conv2d(64, 64, kernel_size=(3, 3), stride=(1, 1), padding=(1, 1))
            (3): ChannelAttention(
              (attention): Sequential(
                (0): AdaptiveAvgPool2d(output_size=1)
                (1): Conv2d(64, 4, kernel_size=(1, 1), stride=(1, 1))
                (2): ReLU(inplace=True)
                (3): Conv2d(4, 64, kernel_size=(1, 1), stride=(1, 1))
                (4): Sigmoid()
              )
            )
          )
        )
      )
      (conv): Conv2d(64, 64, kernel_size=(3, 3), stride=(1, 1), padding=(1, 1))
    )
    (8): ResidualGroup(
      (residual_group): Sequential(
        (0): RCAB(
          (rcab): Sequential(
            (0): Conv2d(64, 64, kernel_size=(3, 3), stride=(1, 1), padding=(1, 1))
            (1): ReLU(inplace=True)
            (2): Conv2d(64, 64, kernel_size=(3, 3), stride=(1, 1), padding=(1, 1))
            (3): ChannelAttention(
              (attention): Sequential(
                (0): AdaptiveAvgPool2d(output_size=1)
                (1): Conv2d(64, 4, kernel_size=(1, 1), stride=(1, 1))
                (2): ReLU(inplace=True)
                (3): Conv2d(4, 64, kernel_size=(1, 1), stride=(1, 1))
                (4): Sigmoid()
              )
            )
          )
        )
        (1): RCAB(
          (rcab): Sequential(
            (0): Conv2d(64, 64, kernel_size=(3, 3), stride=(1, 1), padding=(1, 1))
            (1): ReLU(inplace=True)
            (2): Conv2d(64, 64, kernel_size=(3, 3), stride=(1, 1), padding=(1, 1))
            (3): ChannelAttention(
              (attention): Sequential(
                (0): AdaptiveAvgPool2d(output_size=1)
                (1): Conv2d(64, 4, kernel_size=(1, 1), stride=(1, 1))
                (2): ReLU(inplace=True)
                (3): Conv2d(4, 64, kernel_size=(1, 1), stride=(1, 1))
                (4): Sigmoid()
              )
            )
          )
        )
        (2): RCAB(
          (rcab): Sequential(
            (0): Conv2d(64, 64, kernel_size=(3, 3), stride=(1, 1), padding=(1, 1))
            (1): ReLU(inplace=True)
            (2): Conv2d(64, 64, kernel_size=(3, 3), stride=(1, 1), padding=(1, 1))
            (3): ChannelAttention(
              (attention): Sequential(
                (0): AdaptiveAvgPool2d(output_size=1)
                (1): Conv2d(64, 4, kernel_size=(1, 1), stride=(1, 1))
                (2): ReLU(inplace=True)
                (3): Conv2d(4, 64, kernel_size=(1, 1), stride=(1, 1))
                (4): Sigmoid()
              )
            )
          )
        )
        (3): RCAB(
          (rcab): Sequential(
            (0): Conv2d(64, 64, kernel_size=(3, 3), stride=(1, 1), padding=(1, 1))
            (1): ReLU(inplace=True)
            (2): Conv2d(64, 64, kernel_size=(3, 3), stride=(1, 1), padding=(1, 1))
            (3): ChannelAttention(
              (attention): Sequential(
                (0): AdaptiveAvgPool2d(output_size=1)
                (1): Conv2d(64, 4, kernel_size=(1, 1), stride=(1, 1))
                (2): ReLU(inplace=True)
                (3): Conv2d(4, 64, kernel_size=(1, 1), stride=(1, 1))
                (4): Sigmoid()
              )
            )
          )
        )
        (4): RCAB(
          (rcab): Sequential(
            (0): Conv2d(64, 64, kernel_size=(3, 3), stride=(1, 1), padding=(1, 1))
            (1): ReLU(inplace=True)
            (2): Conv2d(64, 64, kernel_size=(3, 3), stride=(1, 1), padding=(1, 1))
            (3): ChannelAttention(
              (attention): Sequential(
                (0): AdaptiveAvgPool2d(output_size=1)
                (1): Conv2d(64, 4, kernel_size=(1, 1), stride=(1, 1))
                (2): ReLU(inplace=True)
                (3): Conv2d(4, 64, kernel_size=(1, 1), stride=(1, 1))
                (4): Sigmoid()
              )
            )
          )
        )
        (5): RCAB(
          (rcab): Sequential(
            (0): Conv2d(64, 64, kernel_size=(3, 3), stride=(1, 1), padding=(1, 1))
            (1): ReLU(inplace=True)
            (2): Conv2d(64, 64, kernel_size=(3, 3), stride=(1, 1), padding=(1, 1))
            (3): ChannelAttention(
              (attention): Sequential(
                (0): AdaptiveAvgPool2d(output_size=1)
                (1): Conv2d(64, 4, kernel_size=(1, 1), stride=(1, 1))
                (2): ReLU(inplace=True)
                (3): Conv2d(4, 64, kernel_size=(1, 1), stride=(1, 1))
                (4): Sigmoid()
              )
            )
          )
        )
        (6): RCAB(
          (rcab): Sequential(
            (0): Conv2d(64, 64, kernel_size=(3, 3), stride=(1, 1), padding=(1, 1))
            (1): ReLU(inplace=True)
            (2): Conv2d(64, 64, kernel_size=(3, 3), stride=(1, 1), padding=(1, 1))
            (3): ChannelAttention(
              (attention): Sequential(
                (0): AdaptiveAvgPool2d(output_size=1)
                (1): Conv2d(64, 4, kernel_size=(1, 1), stride=(1, 1))
                (2): ReLU(inplace=True)
                (3): Conv2d(4, 64, kernel_size=(1, 1), stride=(1, 1))
                (4): Sigmoid()
              )
            )
          )
        )
        (7): RCAB(
          (rcab): Sequential(
            (0): Conv2d(64, 64, kernel_size=(3, 3), stride=(1, 1), padding=(1, 1))
            (1): ReLU(inplace=True)
            (2): Conv2d(64, 64, kernel_size=(3, 3), stride=(1, 1), padding=(1, 1))
            (3): ChannelAttention(
              (attention): Sequential(
                (0): AdaptiveAvgPool2d(output_size=1)
                (1): Conv2d(64, 4, kernel_size=(1, 1), stride=(1, 1))
                (2): ReLU(inplace=True)
                (3): Conv2d(4, 64, kernel_size=(1, 1), stride=(1, 1))
                (4): Sigmoid()
              )
            )
          )
        )
        (8): RCAB(
          (rcab): Sequential(
            (0): Conv2d(64, 64, kernel_size=(3, 3), stride=(1, 1), padding=(1, 1))
            (1): ReLU(inplace=True)
            (2): Conv2d(64, 64, kernel_size=(3, 3), stride=(1, 1), padding=(1, 1))
            (3): ChannelAttention(
              (attention): Sequential(
                (0): AdaptiveAvgPool2d(output_size=1)
                (1): Conv2d(64, 4, kernel_size=(1, 1), stride=(1, 1))
                (2): ReLU(inplace=True)
                (3): Conv2d(4, 64, kernel_size=(1, 1), stride=(1, 1))
                (4): Sigmoid()
              )
            )
          )
        )
        (9): RCAB(
          (rcab): Sequential(
            (0): Conv2d(64, 64, kernel_size=(3, 3), stride=(1, 1), padding=(1, 1))
            (1): ReLU(inplace=True)
            (2): Conv2d(64, 64, kernel_size=(3, 3), stride=(1, 1), padding=(1, 1))
            (3): ChannelAttention(
              (attention): Sequential(
                (0): AdaptiveAvgPool2d(output_size=1)
                (1): Conv2d(64, 4, kernel_size=(1, 1), stride=(1, 1))
                (2): ReLU(inplace=True)
                (3): Conv2d(4, 64, kernel_size=(1, 1), stride=(1, 1))
                (4): Sigmoid()
              )
            )
          )
        )
        (10): RCAB(
          (rcab): Sequential(
            (0): Conv2d(64, 64, kernel_size=(3, 3), stride=(1, 1), padding=(1, 1))
            (1): ReLU(inplace=True)
            (2): Conv2d(64, 64, kernel_size=(3, 3), stride=(1, 1), padding=(1, 1))
            (3): ChannelAttention(
              (attention): Sequential(
                (0): AdaptiveAvgPool2d(output_size=1)
                (1): Conv2d(64, 4, kernel_size=(1, 1), stride=(1, 1))
                (2): ReLU(inplace=True)
                (3): Conv2d(4, 64, kernel_size=(1, 1), stride=(1, 1))
                (4): Sigmoid()
              )
            )
          )
        )
        (11): RCAB(
          (rcab): Sequential(
            (0): Conv2d(64, 64, kernel_size=(3, 3), stride=(1, 1), padding=(1, 1))
            (1): ReLU(inplace=True)
            (2): Conv2d(64, 64, kernel_size=(3, 3), stride=(1, 1), padding=(1, 1))
            (3): ChannelAttention(
              (attention): Sequential(
                (0): AdaptiveAvgPool2d(output_size=1)
                (1): Conv2d(64, 4, kernel_size=(1, 1), stride=(1, 1))
                (2): ReLU(inplace=True)
                (3): Conv2d(4, 64, kernel_size=(1, 1), stride=(1, 1))
                (4): Sigmoid()
              )
            )
          )
        )
        (12): RCAB(
          (rcab): Sequential(
            (0): Conv2d(64, 64, kernel_size=(3, 3), stride=(1, 1), padding=(1, 1))
            (1): ReLU(inplace=True)
            (2): Conv2d(64, 64, kernel_size=(3, 3), stride=(1, 1), padding=(1, 1))
            (3): ChannelAttention(
              (attention): Sequential(
                (0): AdaptiveAvgPool2d(output_size=1)
                (1): Conv2d(64, 4, kernel_size=(1, 1), stride=(1, 1))
                (2): ReLU(inplace=True)
                (3): Conv2d(4, 64, kernel_size=(1, 1), stride=(1, 1))
                (4): Sigmoid()
              )
            )
          )
        )
        (13): RCAB(
          (rcab): Sequential(
            (0): Conv2d(64, 64, kernel_size=(3, 3), stride=(1, 1), padding=(1, 1))
            (1): ReLU(inplace=True)
            (2): Conv2d(64, 64, kernel_size=(3, 3), stride=(1, 1), padding=(1, 1))
            (3): ChannelAttention(
              (attention): Sequential(
                (0): AdaptiveAvgPool2d(output_size=1)
                (1): Conv2d(64, 4, kernel_size=(1, 1), stride=(1, 1))
                (2): ReLU(inplace=True)
                (3): Conv2d(4, 64, kernel_size=(1, 1), stride=(1, 1))
                (4): Sigmoid()
              )
            )
          )
        )
        (14): RCAB(
          (rcab): Sequential(
            (0): Conv2d(64, 64, kernel_size=(3, 3), stride=(1, 1), padding=(1, 1))
            (1): ReLU(inplace=True)
            (2): Conv2d(64, 64, kernel_size=(3, 3), stride=(1, 1), padding=(1, 1))
            (3): ChannelAttention(
              (attention): Sequential(
                (0): AdaptiveAvgPool2d(output_size=1)
                (1): Conv2d(64, 4, kernel_size=(1, 1), stride=(1, 1))
                (2): ReLU(inplace=True)
                (3): Conv2d(4, 64, kernel_size=(1, 1), stride=(1, 1))
                (4): Sigmoid()
              )
            )
          )
        )
        (15): RCAB(
          (rcab): Sequential(
            (0): Conv2d(64, 64, kernel_size=(3, 3), stride=(1, 1), padding=(1, 1))
            (1): ReLU(inplace=True)
            (2): Conv2d(64, 64, kernel_size=(3, 3), stride=(1, 1), padding=(1, 1))
            (3): ChannelAttention(
              (attention): Sequential(
                (0): AdaptiveAvgPool2d(output_size=1)
                (1): Conv2d(64, 4, kernel_size=(1, 1), stride=(1, 1))
                (2): ReLU(inplace=True)
                (3): Conv2d(4, 64, kernel_size=(1, 1), stride=(1, 1))
                (4): Sigmoid()
              )
            )
          )
        )
        (16): RCAB(
          (rcab): Sequential(
            (0): Conv2d(64, 64, kernel_size=(3, 3), stride=(1, 1), padding=(1, 1))
            (1): ReLU(inplace=True)
            (2): Conv2d(64, 64, kernel_size=(3, 3), stride=(1, 1), padding=(1, 1))
            (3): ChannelAttention(
              (attention): Sequential(
                (0): AdaptiveAvgPool2d(output_size=1)
                (1): Conv2d(64, 4, kernel_size=(1, 1), stride=(1, 1))
                (2): ReLU(inplace=True)
                (3): Conv2d(4, 64, kernel_size=(1, 1), stride=(1, 1))
                (4): Sigmoid()
              )
            )
          )
        )
        (17): RCAB(
          (rcab): Sequential(
            (0): Conv2d(64, 64, kernel_size=(3, 3), stride=(1, 1), padding=(1, 1))
            (1): ReLU(inplace=True)
            (2): Conv2d(64, 64, kernel_size=(3, 3), stride=(1, 1), padding=(1, 1))
            (3): ChannelAttention(
              (attention): Sequential(
                (0): AdaptiveAvgPool2d(output_size=1)
                (1): Conv2d(64, 4, kernel_size=(1, 1), stride=(1, 1))
                (2): ReLU(inplace=True)
                (3): Conv2d(4, 64, kernel_size=(1, 1), stride=(1, 1))
                (4): Sigmoid()
              )
            )
          )
        )
        (18): RCAB(
          (rcab): Sequential(
            (0): Conv2d(64, 64, kernel_size=(3, 3), stride=(1, 1), padding=(1, 1))
            (1): ReLU(inplace=True)
            (2): Conv2d(64, 64, kernel_size=(3, 3), stride=(1, 1), padding=(1, 1))
            (3): ChannelAttention(
              (attention): Sequential(
                (0): AdaptiveAvgPool2d(output_size=1)
                (1): Conv2d(64, 4, kernel_size=(1, 1), stride=(1, 1))
                (2): ReLU(inplace=True)
                (3): Conv2d(4, 64, kernel_size=(1, 1), stride=(1, 1))
                (4): Sigmoid()
              )
            )
          )
        )
        (19): RCAB(
          (rcab): Sequential(
            (0): Conv2d(64, 64, kernel_size=(3, 3), stride=(1, 1), padding=(1, 1))
            (1): ReLU(inplace=True)
            (2): Conv2d(64, 64, kernel_size=(3, 3), stride=(1, 1), padding=(1, 1))
            (3): ChannelAttention(
              (attention): Sequential(
                (0): AdaptiveAvgPool2d(output_size=1)
                (1): Conv2d(64, 4, kernel_size=(1, 1), stride=(1, 1))
                (2): ReLU(inplace=True)
                (3): Conv2d(4, 64, kernel_size=(1, 1), stride=(1, 1))
                (4): Sigmoid()
              )
            )
          )
        )
      )
      (conv): Conv2d(64, 64, kernel_size=(3, 3), stride=(1, 1), padding=(1, 1))
    )
    (9): ResidualGroup(
      (residual_group): Sequential(
        (0): RCAB(
          (rcab): Sequential(
            (0): Conv2d(64, 64, kernel_size=(3, 3), stride=(1, 1), padding=(1, 1))
            (1): ReLU(inplace=True)
            (2): Conv2d(64, 64, kernel_size=(3, 3), stride=(1, 1), padding=(1, 1))
            (3): ChannelAttention(
              (attention): Sequential(
                (0): AdaptiveAvgPool2d(output_size=1)
                (1): Conv2d(64, 4, kernel_size=(1, 1), stride=(1, 1))
                (2): ReLU(inplace=True)
                (3): Conv2d(4, 64, kernel_size=(1, 1), stride=(1, 1))
                (4): Sigmoid()
              )
            )
          )
        )
        (1): RCAB(
          (rcab): Sequential(
            (0): Conv2d(64, 64, kernel_size=(3, 3), stride=(1, 1), padding=(1, 1))
            (1): ReLU(inplace=True)
            (2): Conv2d(64, 64, kernel_size=(3, 3), stride=(1, 1), padding=(1, 1))
            (3): ChannelAttention(
              (attention): Sequential(
                (0): AdaptiveAvgPool2d(output_size=1)
                (1): Conv2d(64, 4, kernel_size=(1, 1), stride=(1, 1))
                (2): ReLU(inplace=True)
                (3): Conv2d(4, 64, kernel_size=(1, 1), stride=(1, 1))
                (4): Sigmoid()
              )
            )
          )
        )
        (2): RCAB(
          (rcab): Sequential(
            (0): Conv2d(64, 64, kernel_size=(3, 3), stride=(1, 1), padding=(1, 1))
            (1): ReLU(inplace=True)
            (2): Conv2d(64, 64, kernel_size=(3, 3), stride=(1, 1), padding=(1, 1))
            (3): ChannelAttention(
              (attention): Sequential(
                (0): AdaptiveAvgPool2d(output_size=1)
                (1): Conv2d(64, 4, kernel_size=(1, 1), stride=(1, 1))
                (2): ReLU(inplace=True)
                (3): Conv2d(4, 64, kernel_size=(1, 1), stride=(1, 1))
                (4): Sigmoid()
              )
            )
          )
        )
        (3): RCAB(
          (rcab): Sequential(
            (0): Conv2d(64, 64, kernel_size=(3, 3), stride=(1, 1), padding=(1, 1))
            (1): ReLU(inplace=True)
            (2): Conv2d(64, 64, kernel_size=(3, 3), stride=(1, 1), padding=(1, 1))
            (3): ChannelAttention(
              (attention): Sequential(
                (0): AdaptiveAvgPool2d(output_size=1)
                (1): Conv2d(64, 4, kernel_size=(1, 1), stride=(1, 1))
                (2): ReLU(inplace=True)
                (3): Conv2d(4, 64, kernel_size=(1, 1), stride=(1, 1))
                (4): Sigmoid()
              )
            )
          )
        )
        (4): RCAB(
          (rcab): Sequential(
            (0): Conv2d(64, 64, kernel_size=(3, 3), stride=(1, 1), padding=(1, 1))
            (1): ReLU(inplace=True)
            (2): Conv2d(64, 64, kernel_size=(3, 3), stride=(1, 1), padding=(1, 1))
            (3): ChannelAttention(
              (attention): Sequential(
                (0): AdaptiveAvgPool2d(output_size=1)
                (1): Conv2d(64, 4, kernel_size=(1, 1), stride=(1, 1))
                (2): ReLU(inplace=True)
                (3): Conv2d(4, 64, kernel_size=(1, 1), stride=(1, 1))
                (4): Sigmoid()
              )
            )
          )
        )
        (5): RCAB(
          (rcab): Sequential(
            (0): Conv2d(64, 64, kernel_size=(3, 3), stride=(1, 1), padding=(1, 1))
            (1): ReLU(inplace=True)
            (2): Conv2d(64, 64, kernel_size=(3, 3), stride=(1, 1), padding=(1, 1))
            (3): ChannelAttention(
              (attention): Sequential(
                (0): AdaptiveAvgPool2d(output_size=1)
                (1): Conv2d(64, 4, kernel_size=(1, 1), stride=(1, 1))
                (2): ReLU(inplace=True)
                (3): Conv2d(4, 64, kernel_size=(1, 1), stride=(1, 1))
                (4): Sigmoid()
              )
            )
          )
        )
        (6): RCAB(
          (rcab): Sequential(
            (0): Conv2d(64, 64, kernel_size=(3, 3), stride=(1, 1), padding=(1, 1))
            (1): ReLU(inplace=True)
            (2): Conv2d(64, 64, kernel_size=(3, 3), stride=(1, 1), padding=(1, 1))
            (3): ChannelAttention(
              (attention): Sequential(
                (0): AdaptiveAvgPool2d(output_size=1)
                (1): Conv2d(64, 4, kernel_size=(1, 1), stride=(1, 1))
                (2): ReLU(inplace=True)
                (3): Conv2d(4, 64, kernel_size=(1, 1), stride=(1, 1))
                (4): Sigmoid()
              )
            )
          )
        )
        (7): RCAB(
          (rcab): Sequential(
            (0): Conv2d(64, 64, kernel_size=(3, 3), stride=(1, 1), padding=(1, 1))
            (1): ReLU(inplace=True)
            (2): Conv2d(64, 64, kernel_size=(3, 3), stride=(1, 1), padding=(1, 1))
            (3): ChannelAttention(
              (attention): Sequential(
                (0): AdaptiveAvgPool2d(output_size=1)
                (1): Conv2d(64, 4, kernel_size=(1, 1), stride=(1, 1))
                (2): ReLU(inplace=True)
                (3): Conv2d(4, 64, kernel_size=(1, 1), stride=(1, 1))
                (4): Sigmoid()
              )
            )
          )
        )
        (8): RCAB(
          (rcab): Sequential(
            (0): Conv2d(64, 64, kernel_size=(3, 3), stride=(1, 1), padding=(1, 1))
            (1): ReLU(inplace=True)
            (2): Conv2d(64, 64, kernel_size=(3, 3), stride=(1, 1), padding=(1, 1))
            (3): ChannelAttention(
              (attention): Sequential(
                (0): AdaptiveAvgPool2d(output_size=1)
                (1): Conv2d(64, 4, kernel_size=(1, 1), stride=(1, 1))
                (2): ReLU(inplace=True)
                (3): Conv2d(4, 64, kernel_size=(1, 1), stride=(1, 1))
                (4): Sigmoid()
              )
            )
          )
        )
        (9): RCAB(
          (rcab): Sequential(
            (0): Conv2d(64, 64, kernel_size=(3, 3), stride=(1, 1), padding=(1, 1))
            (1): ReLU(inplace=True)
            (2): Conv2d(64, 64, kernel_size=(3, 3), stride=(1, 1), padding=(1, 1))
            (3): ChannelAttention(
              (attention): Sequential(
                (0): AdaptiveAvgPool2d(output_size=1)
                (1): Conv2d(64, 4, kernel_size=(1, 1), stride=(1, 1))
                (2): ReLU(inplace=True)
                (3): Conv2d(4, 64, kernel_size=(1, 1), stride=(1, 1))
                (4): Sigmoid()
              )
            )
          )
        )
        (10): RCAB(
          (rcab): Sequential(
            (0): Conv2d(64, 64, kernel_size=(3, 3), stride=(1, 1), padding=(1, 1))
            (1): ReLU(inplace=True)
            (2): Conv2d(64, 64, kernel_size=(3, 3), stride=(1, 1), padding=(1, 1))
            (3): ChannelAttention(
              (attention): Sequential(
                (0): AdaptiveAvgPool2d(output_size=1)
                (1): Conv2d(64, 4, kernel_size=(1, 1), stride=(1, 1))
                (2): ReLU(inplace=True)
                (3): Conv2d(4, 64, kernel_size=(1, 1), stride=(1, 1))
                (4): Sigmoid()
              )
            )
          )
        )
        (11): RCAB(
          (rcab): Sequential(
            (0): Conv2d(64, 64, kernel_size=(3, 3), stride=(1, 1), padding=(1, 1))
            (1): ReLU(inplace=True)
            (2): Conv2d(64, 64, kernel_size=(3, 3), stride=(1, 1), padding=(1, 1))
            (3): ChannelAttention(
              (attention): Sequential(
                (0): AdaptiveAvgPool2d(output_size=1)
                (1): Conv2d(64, 4, kernel_size=(1, 1), stride=(1, 1))
                (2): ReLU(inplace=True)
                (3): Conv2d(4, 64, kernel_size=(1, 1), stride=(1, 1))
                (4): Sigmoid()
              )
            )
          )
        )
        (12): RCAB(
          (rcab): Sequential(
            (0): Conv2d(64, 64, kernel_size=(3, 3), stride=(1, 1), padding=(1, 1))
            (1): ReLU(inplace=True)
            (2): Conv2d(64, 64, kernel_size=(3, 3), stride=(1, 1), padding=(1, 1))
            (3): ChannelAttention(
              (attention): Sequential(
                (0): AdaptiveAvgPool2d(output_size=1)
                (1): Conv2d(64, 4, kernel_size=(1, 1), stride=(1, 1))
                (2): ReLU(inplace=True)
                (3): Conv2d(4, 64, kernel_size=(1, 1), stride=(1, 1))
                (4): Sigmoid()
              )
            )
          )
        )
        (13): RCAB(
          (rcab): Sequential(
            (0): Conv2d(64, 64, kernel_size=(3, 3), stride=(1, 1), padding=(1, 1))
            (1): ReLU(inplace=True)
            (2): Conv2d(64, 64, kernel_size=(3, 3), stride=(1, 1), padding=(1, 1))
            (3): ChannelAttention(
              (attention): Sequential(
                (0): AdaptiveAvgPool2d(output_size=1)
                (1): Conv2d(64, 4, kernel_size=(1, 1), stride=(1, 1))
                (2): ReLU(inplace=True)
                (3): Conv2d(4, 64, kernel_size=(1, 1), stride=(1, 1))
                (4): Sigmoid()
              )
            )
          )
        )
        (14): RCAB(
          (rcab): Sequential(
            (0): Conv2d(64, 64, kernel_size=(3, 3), stride=(1, 1), padding=(1, 1))
            (1): ReLU(inplace=True)
            (2): Conv2d(64, 64, kernel_size=(3, 3), stride=(1, 1), padding=(1, 1))
            (3): ChannelAttention(
              (attention): Sequential(
                (0): AdaptiveAvgPool2d(output_size=1)
                (1): Conv2d(64, 4, kernel_size=(1, 1), stride=(1, 1))
                (2): ReLU(inplace=True)
                (3): Conv2d(4, 64, kernel_size=(1, 1), stride=(1, 1))
                (4): Sigmoid()
              )
            )
          )
        )
        (15): RCAB(
          (rcab): Sequential(
            (0): Conv2d(64, 64, kernel_size=(3, 3), stride=(1, 1), padding=(1, 1))
            (1): ReLU(inplace=True)
            (2): Conv2d(64, 64, kernel_size=(3, 3), stride=(1, 1), padding=(1, 1))
            (3): ChannelAttention(
              (attention): Sequential(
                (0): AdaptiveAvgPool2d(output_size=1)
                (1): Conv2d(64, 4, kernel_size=(1, 1), stride=(1, 1))
                (2): ReLU(inplace=True)
                (3): Conv2d(4, 64, kernel_size=(1, 1), stride=(1, 1))
                (4): Sigmoid()
              )
            )
          )
        )
        (16): RCAB(
          (rcab): Sequential(
            (0): Conv2d(64, 64, kernel_size=(3, 3), stride=(1, 1), padding=(1, 1))
            (1): ReLU(inplace=True)
            (2): Conv2d(64, 64, kernel_size=(3, 3), stride=(1, 1), padding=(1, 1))
            (3): ChannelAttention(
              (attention): Sequential(
                (0): AdaptiveAvgPool2d(output_size=1)
                (1): Conv2d(64, 4, kernel_size=(1, 1), stride=(1, 1))
                (2): ReLU(inplace=True)
                (3): Conv2d(4, 64, kernel_size=(1, 1), stride=(1, 1))
                (4): Sigmoid()
              )
            )
          )
        )
        (17): RCAB(
          (rcab): Sequential(
            (0): Conv2d(64, 64, kernel_size=(3, 3), stride=(1, 1), padding=(1, 1))
            (1): ReLU(inplace=True)
            (2): Conv2d(64, 64, kernel_size=(3, 3), stride=(1, 1), padding=(1, 1))
            (3): ChannelAttention(
              (attention): Sequential(
                (0): AdaptiveAvgPool2d(output_size=1)
                (1): Conv2d(64, 4, kernel_size=(1, 1), stride=(1, 1))
                (2): ReLU(inplace=True)
                (3): Conv2d(4, 64, kernel_size=(1, 1), stride=(1, 1))
                (4): Sigmoid()
              )
            )
          )
        )
        (18): RCAB(
          (rcab): Sequential(
            (0): Conv2d(64, 64, kernel_size=(3, 3), stride=(1, 1), padding=(1, 1))
            (1): ReLU(inplace=True)
            (2): Conv2d(64, 64, kernel_size=(3, 3), stride=(1, 1), padding=(1, 1))
            (3): ChannelAttention(
              (attention): Sequential(
                (0): AdaptiveAvgPool2d(output_size=1)
                (1): Conv2d(64, 4, kernel_size=(1, 1), stride=(1, 1))
                (2): ReLU(inplace=True)
                (3): Conv2d(4, 64, kernel_size=(1, 1), stride=(1, 1))
                (4): Sigmoid()
              )
            )
          )
        )
        (19): RCAB(
          (rcab): Sequential(
            (0): Conv2d(64, 64, kernel_size=(3, 3), stride=(1, 1), padding=(1, 1))
            (1): ReLU(inplace=True)
            (2): Conv2d(64, 64, kernel_size=(3, 3), stride=(1, 1), padding=(1, 1))
            (3): ChannelAttention(
              (attention): Sequential(
                (0): AdaptiveAvgPool2d(output_size=1)
                (1): Conv2d(64, 4, kernel_size=(1, 1), stride=(1, 1))
                (2): ReLU(inplace=True)
                (3): Conv2d(4, 64, kernel_size=(1, 1), stride=(1, 1))
                (4): Sigmoid()
              )
            )
          )
        )
      )
      (conv): Conv2d(64, 64, kernel_size=(3, 3), stride=(1, 1), padding=(1, 1))
    )
  )
  (conv_after_body): Conv2d(64, 64, kernel_size=(3, 3), stride=(1, 1), padding=(1, 1))
  (upsample): Upsample(
    (0): Conv2d(64, 256, kernel_size=(3, 3), stride=(1, 1), padding=(1, 1))
    (1): PixelShuffle(upscale_factor=2)
    (2): Conv2d(64, 256, kernel_size=(3, 3), stride=(1, 1), padding=(1, 1))
    (3): PixelShuffle(upscale_factor=2)
  )
  (conv_last): Conv2d(64, 3, kernel_size=(3, 3), stride=(1, 1), padding=(1, 1))
)
2024-07-17 03:32:13,889 INFO: Use Exponential Moving Average with decay: 0.999
2024-07-17 03:32:14,191 INFO: Network [RCAN] is created.
2024-07-17 03:32:14,365 INFO: Loss [L1Loss] is created.
2024-07-17 03:32:14,376 INFO: Model [SRModel] is created.
2024-07-17 03:32:14,438 INFO: Start training from epoch: 0, iter: 0
2024-07-17 03:32:54,987 INFO: [RCAN_..][epoch:  0, iter:     100, lr:(1.000e-04,)] [eta: 1 day, 7:40:32, time (data): 0.405 (0.006)] l_pix: 8.3923e-02 
…
