…
2024-07-07 10:22:23,134 INFO: Dataset [PairedImageDataset] - train_dataset is built.
2024-07-07 10:22:23,134 INFO: Training statistics:
	Number of train images: 343
	Dataset enlarge ratio: 10
	Batch size per gpu: 16
	World size (gpu number): 1
	Require iter number per epoch: 215
	Total epochs: 931; iters: 200000.
2024-07-07 10:22:23,137 INFO: Dataset [PairedImageDataset] - val_dataset is built.
2024-07-07 10:22:23,137 INFO: Number of val images/folders in val_dataset: 73
2024-07-07 10:22:23,601 INFO: Network [EDSR] is created.
2024-07-07 10:22:25,417 INFO: Network: EDSR, with parameters: 43,089,923
2024-07-07 10:22:25,417 INFO: EDSR(
  (conv_first): Conv2d(3, 256, kernel_size=(3, 3), stride=(1, 1), padding=(1, 1))
  (body): Sequential(
    (0): ResidualBlockNoBN(
      (conv1): Conv2d(256, 256, kernel_size=(3, 3), stride=(1, 1), padding=(1, 1))
      (conv2): Conv2d(256, 256, kernel_size=(3, 3), stride=(1, 1), padding=(1, 1))
      (relu): ReLU(inplace=True)
    )
    (1): ResidualBlockNoBN(
      (conv1): Conv2d(256, 256, kernel_size=(3, 3), stride=(1, 1), padding=(1, 1))
      (conv2): Conv2d(256, 256, kernel_size=(3, 3), stride=(1, 1), padding=(1, 1))
      (relu): ReLU(inplace=True)
    )
    (2): ResidualBlockNoBN(
      (conv1): Conv2d(256, 256, kernel_size=(3, 3), stride=(1, 1), padding=(1, 1))
      (conv2): Conv2d(256, 256, kernel_size=(3, 3), stride=(1, 1), padding=(1, 1))
      (relu): ReLU(inplace=True)
    )
    (3): ResidualBlockNoBN(
      (conv1): Conv2d(256, 256, kernel_size=(3, 3), stride=(1, 1), padding=(1, 1))
      (conv2): Conv2d(256, 256, kernel_size=(3, 3), stride=(1, 1), padding=(1, 1))
      (relu): ReLU(inplace=True)
    )
    (4): ResidualBlockNoBN(
      (conv1): Conv2d(256, 256, kernel_size=(3, 3), stride=(1, 1), padding=(1, 1))
      (conv2): Conv2d(256, 256, kernel_size=(3, 3), stride=(1, 1), padding=(1, 1))
      (relu): ReLU(inplace=True)
    )
    (5): ResidualBlockNoBN(
      (conv1): Conv2d(256, 256, kernel_size=(3, 3), stride=(1, 1), padding=(1, 1))
      (conv2): Conv2d(256, 256, kernel_size=(3, 3), stride=(1, 1), padding=(1, 1))
      (relu): ReLU(inplace=True)
    )
    (6): ResidualBlockNoBN(
      (conv1): Conv2d(256, 256, kernel_size=(3, 3), stride=(1, 1), padding=(1, 1))
      (conv2): Conv2d(256, 256, kernel_size=(3, 3), stride=(1, 1), padding=(1, 1))
      (relu): ReLU(inplace=True)
    )
    (7): ResidualBlockNoBN(
      (conv1): Conv2d(256, 256, kernel_size=(3, 3), stride=(1, 1), padding=(1, 1))
      (conv2): Conv2d(256, 256, kernel_size=(3, 3), stride=(1, 1), padding=(1, 1))
      (relu): ReLU(inplace=True)
    )
    (8): ResidualBlockNoBN(
      (conv1): Conv2d(256, 256, kernel_size=(3, 3), stride=(1, 1), padding=(1, 1))
      (conv2): Conv2d(256, 256, kernel_size=(3, 3), stride=(1, 1), padding=(1, 1))
      (relu): ReLU(inplace=True)
    )
    (9): ResidualBlockNoBN(
      (conv1): Conv2d(256, 256, kernel_size=(3, 3), stride=(1, 1), padding=(1, 1))
      (conv2): Conv2d(256, 256, kernel_size=(3, 3), stride=(1, 1), padding=(1, 1))
      (relu): ReLU(inplace=True)
    )
    (10): ResidualBlockNoBN(
      (conv1): Conv2d(256, 256, kernel_size=(3, 3), stride=(1, 1), padding=(1, 1))
      (conv2): Conv2d(256, 256, kernel_size=(3, 3), stride=(1, 1), padding=(1, 1))
      (relu): ReLU(inplace=True)
    )
    (11): ResidualBlockNoBN(
      (conv1): Conv2d(256, 256, kernel_size=(3, 3), stride=(1, 1), padding=(1, 1))
      (conv2): Conv2d(256, 256, kernel_size=(3, 3), stride=(1, 1), padding=(1, 1))
      (relu): ReLU(inplace=True)
    )
    (12): ResidualBlockNoBN(
      (conv1): Conv2d(256, 256, kernel_size=(3, 3), stride=(1, 1), padding=(1, 1))
      (conv2): Conv2d(256, 256, kernel_size=(3, 3), stride=(1, 1), padding=(1, 1))
      (relu): ReLU(inplace=True)
    )
    (13): ResidualBlockNoBN(
      (conv1): Conv2d(256, 256, kernel_size=(3, 3), stride=(1, 1), padding=(1, 1))
      (conv2): Conv2d(256, 256, kernel_size=(3, 3), stride=(1, 1), padding=(1, 1))
      (relu): ReLU(inplace=True)
    )
    (14): ResidualBlockNoBN(
      (conv1): Conv2d(256, 256, kernel_size=(3, 3), stride=(1, 1), padding=(1, 1))
      (conv2): Conv2d(256, 256, kernel_size=(3, 3), stride=(1, 1), padding=(1, 1))
      (relu): ReLU(inplace=True)
    )
    (15): ResidualBlockNoBN(
      (conv1): Conv2d(256, 256, kernel_size=(3, 3), stride=(1, 1), padding=(1, 1))
      (conv2): Conv2d(256, 256, kernel_size=(3, 3), stride=(1, 1), padding=(1, 1))
      (relu): ReLU(inplace=True)
    )
    (16): ResidualBlockNoBN(
      (conv1): Conv2d(256, 256, kernel_size=(3, 3), stride=(1, 1), padding=(1, 1))
      (conv2): Conv2d(256, 256, kernel_size=(3, 3), stride=(1, 1), padding=(1, 1))
      (relu): ReLU(inplace=True)
    )
    (17): ResidualBlockNoBN(
      (conv1): Conv2d(256, 256, kernel_size=(3, 3), stride=(1, 1), padding=(1, 1))
      (conv2): Conv2d(256, 256, kernel_size=(3, 3), stride=(1, 1), padding=(1, 1))
      (relu): ReLU(inplace=True)
    )
    (18): ResidualBlockNoBN(
      (conv1): Conv2d(256, 256, kernel_size=(3, 3), stride=(1, 1), padding=(1, 1))
      (conv2): Conv2d(256, 256, kernel_size=(3, 3), stride=(1, 1), padding=(1, 1))
      (relu): ReLU(inplace=True)
    )
    (19): ResidualBlockNoBN(
      (conv1): Conv2d(256, 256, kernel_size=(3, 3), stride=(1, 1), padding=(1, 1))
      (conv2): Conv2d(256, 256, kernel_size=(3, 3), stride=(1, 1), padding=(1, 1))
      (relu): ReLU(inplace=True)
    )
    (20): ResidualBlockNoBN(
      (conv1): Conv2d(256, 256, kernel_size=(3, 3), stride=(1, 1), padding=(1, 1))
      (conv2): Conv2d(256, 256, kernel_size=(3, 3), stride=(1, 1), padding=(1, 1))
      (relu): ReLU(inplace=True)
    )
    (21): ResidualBlockNoBN(
      (conv1): Conv2d(256, 256, kernel_size=(3, 3), stride=(1, 1), padding=(1, 1))
      (conv2): Conv2d(256, 256, kernel_size=(3, 3), stride=(1, 1), padding=(1, 1))
      (relu): ReLU(inplace=True)
    )
    (22): ResidualBlockNoBN(
      (conv1): Conv2d(256, 256, kernel_size=(3, 3), stride=(1, 1), padding=(1, 1))
      (conv2): Conv2d(256, 256, kernel_size=(3, 3), stride=(1, 1), padding=(1, 1))
      (relu): ReLU(inplace=True)
    )
    (23): ResidualBlockNoBN(
      (conv1): Conv2d(256, 256, kernel_size=(3, 3), stride=(1, 1), padding=(1, 1))
      (conv2): Conv2d(256, 256, kernel_size=(3, 3), stride=(1, 1), padding=(1, 1))
      (relu): ReLU(inplace=True)
    )
    (24): ResidualBlockNoBN(
      (conv1): Conv2d(256, 256, kernel_size=(3, 3), stride=(1, 1), padding=(1, 1))
      (conv2): Conv2d(256, 256, kernel_size=(3, 3), stride=(1, 1), padding=(1, 1))
      (relu): ReLU(inplace=True)
    )
    (25): ResidualBlockNoBN(
      (conv1): Conv2d(256, 256, kernel_size=(3, 3), stride=(1, 1), padding=(1, 1))
      (conv2): Conv2d(256, 256, kernel_size=(3, 3), stride=(1, 1), padding=(1, 1))
      (relu): ReLU(inplace=True)
    )
    (26): ResidualBlockNoBN(
      (conv1): Conv2d(256, 256, kernel_size=(3, 3), stride=(1, 1), padding=(1, 1))
      (conv2): Conv2d(256, 256, kernel_size=(3, 3), stride=(1, 1), padding=(1, 1))
      (relu): ReLU(inplace=True)
    )
    (27): ResidualBlockNoBN(
      (conv1): Conv2d(256, 256, kernel_size=(3, 3), stride=(1, 1), padding=(1, 1))
      (conv2): Conv2d(256, 256, kernel_size=(3, 3), stride=(1, 1), padding=(1, 1))
      (relu): ReLU(inplace=True)
    )
    (28): ResidualBlockNoBN(
      (conv1): Conv2d(256, 256, kernel_size=(3, 3), stride=(1, 1), padding=(1, 1))
      (conv2): Conv2d(256, 256, kernel_size=(3, 3), stride=(1, 1), padding=(1, 1))
      (relu): ReLU(inplace=True)
    )
    (29): ResidualBlockNoBN(
      (conv1): Conv2d(256, 256, kernel_size=(3, 3), stride=(1, 1), padding=(1, 1))
      (conv2): Conv2d(256, 256, kernel_size=(3, 3), stride=(1, 1), padding=(1, 1))
      (relu): ReLU(inplace=True)
    )
    (30): ResidualBlockNoBN(
      (conv1): Conv2d(256, 256, kernel_size=(3, 3), stride=(1, 1), padding=(1, 1))
      (conv2): Conv2d(256, 256, kernel_size=(3, 3), stride=(1, 1), padding=(1, 1))
      (relu): ReLU(inplace=True)
    )
    (31): ResidualBlockNoBN(
      (conv1): Conv2d(256, 256, kernel_size=(3, 3), stride=(1, 1), padding=(1, 1))
      (conv2): Conv2d(256, 256, kernel_size=(3, 3), stride=(1, 1), padding=(1, 1))
      (relu): ReLU(inplace=True)
    )
  )
  (conv_after_body): Conv2d(256, 256, kernel_size=(3, 3), stride=(1, 1), padding=(1, 1))
  (upsample): Upsample(
    (0): Conv2d(256, 1024, kernel_size=(3, 3), stride=(1, 1), padding=(1, 1))
    (1): PixelShuffle(upscale_factor=2)
    (2): Conv2d(256, 1024, kernel_size=(3, 3), stride=(1, 1), padding=(1, 1))
    (3): PixelShuffle(upscale_factor=2)
  )
  (conv_last): Conv2d(256, 3, kernel_size=(3, 3), stride=(1, 1), padding=(1, 1))
)
2024-07-07 10:22:25,418 INFO: Use Exponential Moving Average with decay: 0.999
2024-07-07 10:22:25,874 INFO: Network [EDSR] is created.
2024-07-07 10:22:25,937 INFO: Loss [L1Loss] is created.
2024-07-07 10:22:25,940 INFO: Model [SRModel] is created.
2024-07-07 10:22:25,977 INFO: Start training from epoch: 0, iter: 0
2024-07-07 10:23:44,723 INFO: [EDSR_..][epoch:  0, iter:     100, lr:(1.000e-04,)] [eta: 1 day, 13:51:26, time (data): 0.787 (0.005)] l_pix: 9.5255e-02 
…
